models/neuralODE_absolute_dynamics_model.pt (torch, 48359 bytes, 6 tensors)

ode_block.odefunc.model.0.weight f4 [100, 6]
-0.10980976 -0.10652831 0.22008272 -0.2530043 0.24212009 0.18940866 0.33605906 -0.075466
-0.3612717 -0.32574022 0.14448039 -0.20872393 0.35716945 -0.18281068 0.31049228 -0.37307066
0.3310178 0.17761111 0.042298496 0.19634417 -0.37368882 0.19995324 -0.3673847 0.052879773
-0.28955865 0.008933096 -0.14424688 0.2674668 0.013732044 -0.41445085 0.071237564 0.016163327
0.25510594 -0.23861401 -0.43242013 -0.21733746 0.35118526 0.11040282 0.1654421 -0.03968727
-0.057966027 0.13674527 0.24688733 -0.057017587 -0.12301889 -0.3643845 -0.40689224 -0.39528692
0.10564945 -0.2039669 -0.00526794 0.15605107 0.24506176 0.37259 0.19290937 0.38720787
0.38191846 0.07905569 0.0068750917 0.40353483 -0.39465454 0.19730622 0.38088414 -0.3655727
-0.13052626 -0.3534402 0.20148379 0.3752401 -0.14714238 0.024213078 0.21457967 -0.3369777
-0.33951238 -0.33318365 0.07957883 -0.33267424 -0.33137006 -0.22555952 0.14225344 -0.170193
0.26441294 0.036621768 0.021879371 -0.26787907 0.37898353 0.2134162 0.00020563972 -0.21046992
-0.36487758 0.41714007 0.020130368 0.03463387 0.170735 -0.12056506 -0.20444532 0.36364016
0.2647867 0.18395372 -0.42893165 -0.0628787 -0.10249185 -0.043880004 0.27329683 0.12435102
0.35353354 -0.36039087 0.28706536 0.32702845 0.22399525 0.42757243 -0.12423275 -0.31376004
-0.10321451 0.03290613 -0.07417319 0.009231974 0.1455896 0.3798643 0.29141697 0.10372439
0.1595604 -0.118785284 0.37761378 0.025332002 0.315972 0.1337568 0.27265298 -0.12497102
-0.0140712885 -0.0090581905 -0.32761475 0.1315906 -0.37374675 0.23174685 0.1232303 -0.14942685
-0.15964863 0.3034673 0.09430713 0.1191576 -0.35567665 -0.30887714 0.18947224 0.06488868
-0.05111636 0.09900724 0.3747381 -0.13915959 -0.0035968246 -0.05252733 -0.4077069 -0.2201117
0.33072457 0.037528284 0.12946126 -0.20249 0.11002444 0.29758242 0.061812267 0.021511532
0.20219482 0.09676809 0.02435978 -0.16630715 0.36849555 0.36958814 0.09454684 0.013025905
-0.07679761 -0.16564324 0.15865694 0.198229 0.35145637 0.37847823 0.2713964 -0.13631502
0.39044338 0.4076383 0.3091734 0.37624127 0.3966909 -0.08458358 -0.25714254 -0.25369877
-0.40047 0.2728588 -0.38960186 -0.28265235 0.08715596 -0.07137649 0.20923513 0.24256006
-0.30231047 0.03638326 -0.16373767 -0.16825241 -0.3134817 -0.16734412 0.13101932 -0.19618884
-0.078326374 0.09649597 -0.29414812 0.20232856 0.040355317 -0.21499759 0.2549436 0.35314113
0.38287893 0.081219986 -0.0076414305 0.046383154 0.066063926 0.29303023 0.21222354 -0.15813704
0.12206823 0.38574627 0.14745192 -0.24365 -0.09616438 -0.09104935 -0.23792315 -0.25100866
-0.22259636 -0.07015748 -0.08240892 -0.10956274 0.21193361 0.23004833 0.17582898 0.3140509
-0.21231768 0.35979742 0.020967072 -0.1892794 0.22314368 0.23076566 -0.018358853 -0.16905005
0.34509534 0.30274332 -0.31325692 0.27544412 -0.05367753 0.222501 -0.26083338 -0.30609766
0.20661457 0.11092216 -0.36706963 -0.00038747917 0.06502223 -0.09128133 0.19163096 -0.123594575
00000000: f0e3 e0bd 842b dabd 5d5d 613e c889 81be
00000010: 54ee 773e 58f4 413e ef0f ac3e eb8d 9abd
00000020: 9bf8 b8be 6cc7 a6be abf2 133e babb 55be
00000030: eade b63e b932 3bbe d8f8 9e3e 1e03 bfbe
00000040: 2a7b a93e b0df 353e 3041 2d3d 720e 493e
00000050: 2454 bfbe 8bc0 4c3e d919 bcbe 7698 583d
00000060: 0841 94be 1f5c 123c 74b5 13be 69f1 883e
00000070: 5efc 603c e732 d4be 00e5 913d f468 843c
00000080: 3f9d 823e 3b57 74be 2c66 ddbe b68d 5ebe
00000090: 8ece b33e e01a e23d a769 293e 1e8f 22bd
000000a0: c96d 6dbd f406 0c3e 08d0 7c3e 468b 69bd
000000b0: 54f1 fbbd 9b90 babe 2e54 d0be 0c63 cabe
000000c0: bd5e d83d b3dc 50be af9e acbb dacb 1f3e
000000d0: 78f1 7a3e 1ec4 be3e 098a 453e 1c40 c63e
000000e0: d18a c33e f3e7 a13d 7348 e13b 1e9c ce3e
000000f0: 2910 cabe a40a 4a3e 3f03 c33e 582c bbbe
00000100: ada8 05be 1df6 b4be c451 4e3e 781f c03e
00000110: 7eac 16be 815a c63c c6ba 5b3e 5788 acbe
00000120: 91d4 adbe 0c97 aabe 3afa a23d 4754 aabe
00000130: 56a9 a9be 13f9 66be e3aa 113e 1347 2ebe
00000140: 2261 873e b500 163d 5e3c b33c 7227 89be
00000150: 210a c23e c789 5a3e fea0 5739 6d85 57be
00000160: 3cd1 babe 6293 d53e 71e8 a43c 3fdc 0d3d
00000170: 28d5 2e3e d0ea f6bd 1d5a 51be 0b2f ba3e
00000180: 1f92 873e 5d5e 3c3e ee9c dbbe 8cc6 80bd
00000190: 3fe7 d1bd 85bb 33bd 90ed 8b3e bfab fe3d
000001a0: 5902 b53e 2785 b8be 3bfa 923e 4670 a73e
000001b0: 035f 653e c6ea da3e bd6d febd 28a5 a0be
000001c0: 2162 d3bd 94c8 063d 1de8 97bd b541 173c
000001d0: 7115 153e 937d c23e 9b34 953e 746d d43d
000001e0: cd63 233e b345 f3bd 9856 c13e 0f85 cf3c
000001f0: 15c7 a13e 8bf7 083e 2c99 8b3e cef0 ffbd
00000200: 438b 66bc ce68 14bc 1fbd a7be b0bf 063e
00000210: bc5b bfbe 0c4f 6d3e 2b60 fc3d 5a03 19be
00000220: ee7a 23be 1160 9b3e 1924 c13d e608 f43d
00000230: 401b b6be 2525 9ebe 0305 423e 5be4 843d
00000240: 635f 51bd 4fc4 ca3d acdd bf3e da7f 0ebe
00000250: b4b8 6bbb e626 57bd f5be d0be f664 61be
00000260: bb54 a93e 42b7 193d 7e91 043e 8a59 4fbe
00000270: 7e54 e13d b95c 983e dc2e 7d3d f438 b03c
00000280: 290c 4f3e 592e c63d 298e c73c 6c4c 2abe
00000290: 73ab bc3e a83a bd3e c6a1 c13d 9b6a 553c
000002a0: 1148 9dbd 629e 29be f776 223e 8bfc 4a3e
000002b0: 17f2 b33e e6c7 c13e 78f4 8a3e 2a96 0bbe
000002c0: 32e8 c73e f8b5 d03e fa4b 9e3e b2a2 c03e
000002d0: 121b cb3e 283a adbd 30a8 83be cee4 81be
000002e0: 670a cdbe 26b4 8b3e e579 c7be cfb7 90be
000002f0: d37e b23d d62d 92bd bc41 563e aa61 783e
00000300: 70c8 9abe 9d06 153d d9aa 27be 5c4a 2cbe
00000310: ac80 a0be 425c 2bbe ee29 063e bae5 48be
00000320: 9469 a0bd ae9f c53d 959a 96be 382f 4f3e
00000330: 9e4b 253d 5428 5cbe f887 823e eace b43e
00000340: b508 c43e aa56 a63d f764 fabb 43fc 3d3d
00000350: 864c 873d 0f08 963e 2151 593e adee 21be
00000360: e8fe f93d 8980 c53e a3fd 163e 637f 79be
00000370: d5f1 c4bd 1578 babd 20a2 73be 3584 80be
00000380: 4df0 63be baae 8fbd 02c6 a8bd 6e62 e0bd
00000390: 2005 593e ca91 6b3e 830c 343e 48cb a03e
000003a0: ce69 59be 5e37 b83e 23c3 ab3c 76d2 41be
000003b0: c77f 643e d54d 6c3e 4e65 96bc 751b 2dbe
000003c0: 56b0 b03e 2c01 9b3e 3663 a0be 0307 8d3e
000003d0: f8dc 5bbd 4dd7 633e f48b 85be d5b8 9cbe
000003e0: c592 533e 282b e33d 8df0 bbbe 9326 cbb9
000003f0: 602a 853d b5f1 babd e83a 443e 271f fdbd

ode_block.odefunc.model.0.bias f4 [100]
0.12841904 0.26930332 -0.12769559 0.17006955 0.2651455 -0.33811033 -0.1448732 -0.14004786
-0.28713834 0.04733185 -0.026482837 0.19197804 -0.18514591 0.31050313 0.3232821 -0.3621417
-0.0018684926 0.1656893 0.34905854 -0.35317007 -0.15343003 0.24865547 -0.2773761 0.12162188
-0.19174713 -0.02012558 -0.040204283 -0.39032787 -0.2607394 -0.06384654 -0.31577453 0.31669793
-0.27474636 -0.31285173 0.39617625 0.09196491 0.1121408 0.3434261 0.08403963 0.018498588
0.2606633 0.34616148 -0.034609202 0.07265354 0.4195784 -0.38988745 0.14783902 0.119635135
0.3470348 -0.07571879 -0.21083659 -0.3422787 0.02649084 -0.08135537 -0.04577701 0.17508408
0.3469235 -0.04705496 -0.3074741 0.20863008 0.06501083 -0.28005576 -0.20406799 -0.22668527
0.06370173 0.120757096 0.04067132 0.36466995 -0.19448851 -0.2623588 -0.012309222 0.31068972
0.026677532 0.27261513 0.13234594 0.30425635 0.08666185 -0.36981204 -0.1557458 -0.2821141
-0.05156437 -0.34084982 0.28762072 -0.1408487 -0.094237275 0.24146973 -0.39075533 0.20315866
0.17424195 -0.21202217 -0.22289754 -0.38963294 0.041091662 -0.08599131 0.2787642 -0.1129826
0.38745108 0.33569044 0.27537727 0.3886154
00000000: 4880 033e 20e2 893e a2c2 02be b626 2e3e
00000010: 27c1 873e cc1c adbe a459 14be b568 0fbe
00000020: cc03 93be 0bdf 413d 89f2 d8bc e495 443e
00000030: e496 3dbe 44fa 9e3e 3b85 a53e a36a b9be
00000040: 35e8 f4ba 75aa 293e cdb7 b23e b5d2 b4be
00000050: c31c 1dbe 8a9f 7e3e 3d04 8ebe e414 f93d
00000060: 5c59 44be 66de a4bc 3fad 24bd 0ed9 c7be
00000070: a27f 85be fac1 82bd 33ad a1be 3b26 a23e
00000080: 8eab 8cbe 1a2e a0be 9dd7 ca3e 1958 bc3d
00000090: 13aa e53d 8cd5 af3e f81c ac3d 5a8a 973c
000000a0: a975 853e 143c b13e 61c2 0dbd 61cb 943d
000000b0: fbd2 d63e 549f c7be 1d63 173e 4403 f53d
000000c0: 8cae b13e 7412 9bbd 8ce5 57be 273f afbe
000000d0: 5103 d93c a59d a6bd ad80 3bbd 3e49 333e
000000e0: f59f b13e b4bc 40bd 3f6d 9dbe 20a3 553e
000000f0: 6624 853d 7863 8fbe 33f7 50be 2f20 68be
00000100: 0d76 823d 7f4f f73d f896 263d 05b6 ba3e
00000110: ff27 47be e553 86be 9eac 49bc b912 9f3e
00000120: d78a da3c 3694 8b3e b285 073e 7dc7 9b3e
00000130: c57b b13d 0158 bdbe d47b 1fbe 4271 90be
00000140: 2935 53bd de83 aebe 0643 933e a43a 10be
00000150: 79ff c0bd d743 773e 1511 c8be d308 503e
00000160: 7b6c 323e 571c 59be 413f 64be f87d c7be
00000170: bb4f 283d 361c b0bd 2eba 8e3e 6c63 e7bd
00000180: fd5f c63e 9edf ab3e 40fe 8c3e 99f8 c63e

ode_block.odefunc.model.2.weight f4 [100, 100]
-0.059427872 0.09680861 0.029850306 -0.0013992103 -0.004930072 0.09524275 -0.095823154 0.050893098
-0.06166757 0.0023684837 -0.06905735 -0.0173064 -0.039752692 -0.031394023 0.043132216 -0.0207758
-0.09141603 0.052167334 0.09884035 0.037374735 -0.01577494 0.07128358 -0.043643735 -0.025040407
0.0340713 -0.001994284 -0.094709225 0.016693084 -0.02200633 -0.03560249 0.06456565 0.0126194665
-0.04135315 0.011010725 0.04184667 0.06427878 -0.089282855 0.08331808 0.034960687 0.054797854
0.08088925 0.09995046 -0.03462894 0.09082866 -0.03013506 0.019903729 0.09550512 0.042596925
-0.037691914 0.059753314 -0.08376674 0.11212758 0.0549326 -0.09475908 -0.05163917 0.011748567
-0.061752077 -0.019676393 -0.036724135 0.028077422 -0.017370157 -0.047701497 0.08458654 -0.09702172
-0.08192234 0.059187613 -0.079475455 0.07625154 -0.018052576 -0.038934037 -0.077684775 0.03212896
0.01774556 -0.00064008037 -0.032456018 0.059380386 -0.056247674 -0.11252288 0.07728163 -0.06088191
0.026207756 0.07971204 0.0071114115 -0.082998075 -0.10073646 0.0736678 -0.012336678 -0.021180646
-0.081411205 0.03219303 -0.055777192 -0.01395905 0.059202835 -0.001107892 -0.0076183267 0.020595288
-0.008421273 -0.0152442865 0.060928684 -0.04135977 0.009506699 -0.044019856 0.045328792 -0.08306124
-0.14090589 -0.20684999 -0.017508432 -0.08268802 0.002400401 0.041069444 -0.11747131 -0.0972801
-0.26758674 0.013527784 0.0077919248 0.16492702 0.022986416 0.09280168 -0.037200965 0.025253337
0.0045140684 -0.038309045 -0.18097027 0.07017183 0.14890629 -0.09556342 0.070340514 0.046827562
-0.06250688 -0.049925603 -0.033412535 0.079640694 -0.056590065 -0.091392994 -0.051609766 0.0261843
-0.048212893 -0.018892786 0.012276842 -0.075174995 0.0795165 0.030855412 -0.03403773 -0.021048522
-0.10058664 0.077573955 0.06195644 0.06519521 0.018054124 -0.026313838 -0.15191738 0.18956503
0.031386886 0.02721485 -0.07441805 -0.06472511 -0.054432973 -0.012872178 0.08151493 0.03662885
0.050538152 -0.37021032 -0.13340834 0.05675505 0.04505506 0.013466089 -0.27900735 -0.055510495
0.09756147 -0.3471369 -0.090970635 0.031024361 -0.052309215 0.015573288 0.0020056593 -0.03889631
-0.10484935 -0.4734827 0.054883145 -0.028330423 0.08690231 -0.016196253 0.09038716 -0.007862759
-0.24089965 -0.079723984 0.0680547 -0.058061738 -0.0034068085 0.12177585 0.17321886 0.075046316
0.052328307 0.07859369 0.05170283 0.09582451 0.00657156 0.072380766 -0.045103896 0.05696343
-0.054304734 0.0072464226 -0.030447932 0.040601462 0.06993625 -0.07384841 0.052670233 -0.0937434
0.052875597 -0.093271814 0.05812361 0.08791332 -0.046630297 -0.13478588 0.090763405 -0.04458688
0.03851909 -0.035067175 -0.085126914 -0.07388717 0.058331195 -0.02256951 0.037455186 -0.07372491
0.01454244 -0.06475084 0.045860264 -0.025812788 -0.053193912 -0.052955907 0.09161078 0.06534665
-0.0038747217 -0.07980563 -0.01161003 -0.062123198 0.024050508 0.08050354 0.04829438 -0.07685691
0.03506322 -0.07777826 0.07843321 -0.055485606 -0.09010348 0.046422254 -0.09405939 0.014983175
0.065928325 -0.10112339 -0.097811274 -0.029589593 0.019817963 0.012850096 0.05808169 -0.0006534116
00000000: a46a 73bd 9843 c63d a188 f43c b565 b7ba
00000010: 718c a1bb a20e c33d ee3e c4bd 4875 503d
00000020: 2297 7cbd 9038 1b3b f16d 8dbd 27c6 8dbc
00000030: b8d3 22bd 0597 00bd 68ab 303d 0332 aabc
00000040: 5438 bbbd 6aad 553d cf6c ca3d 4016 193d
00000050: 723a 81bc 20fd 913d c6c3 32bd 8a21 cdbc
00000060: 598e 0b3d 89b2 02bb e9f6 c1bd efbf 883c
00000070: 9e46 b4bc ebd3 11bd ff3a 843d e1c1 4e3c
00000080: ec61 29bd 5466 343c 6a67 2b3d 98a4 833d
00000090: eed9 b6bd aba2 aa3d f032 0f3d b773 603d
000000a0: 43a9 a53d d4b2 cc3d 13d7 0dbd 6004 ba3d
000000b0: cddd f6bc 250d a33c 3098 c33d 1d7a 2e3d
000000c0: d662 1abd e4bf 743d e68d abbd 25a3 e53d
000000d0: 0201 613d 0c11 c2bd 9883 53bd 107d 403c
000000e0: bfef 7cbd 6330 a1bc 0c6c 16bd 9f02 e63c
000000f0: dc4b 8ebc a562 43bd b53b ad3d 53b3 c6bd
00000100: e6c6 a7bd b66e 723d 07c4 a2bd c429 9c3d
00000110: ffe2 93bc 4c79 1fbd 3219 9fbd a899 033d
00000120: 235f 913c 11cb 27ba 9af0 04bd d938 733d
00000130: f663 66bd 6572 e6bd d545 9e3d 4f5f 79bd
00000140: a6b1 d63c 1140 a33d d806 e93b e5fa a9bd
00000150: eb4e cebd 25df 963d c71f 4abc 0983 adbc
00000160: ebba a6bd d7dc 033d a076 64bd 80b4 64bc
00000170: ac7e 723d b036 91ba 28a3 f9bb 73b7 a83c
00000180: 61f9 09bc 2cc3 79bc 5b90 793d dd68 29bd
00000190: fcc1 1b3c 2a4e 34bd afaa 393d 031c aabd
000001a0: a249 10be 7cd0 53be d86d 8fbc 5658 a9bd
000001b0: 0c50 1d3b 6f38 283d cc94 f0bd ca3a c7bd
000001c0: 2101 89be a3a3 5d3c 6753 ff3b a1e2 283e
000001d0: 024e bc3c cf0e be3d 0a60 18bd 16e0 ce3c
000001e0: c0ea 933b f2e9 1cbd 4550 39be 40b6 8f3d
000001f0: e47a 183e c1b6 c3bd b00e 903d 42ce 3f3d
00000200: 9b03 80bd ca7e 4cbd 95db 08bd a91a a33d
00000210: fcca 67bd 402c bbbd c364 53bd 7580 d63c
00000220: e27a 45bd 0bc5 9abc cf24 493c 59f5 99bd
00000230: 8cd9 a23d 7dc4 fc3c 266b 0bbd f36d acbc
00000240: 5e00 cebd 18df 9e3d 09c6 7d3d 1185 853d
00000250: 3ee6 933c 1e90 d7bc 3b90 1bbe 561d 423e
00000260: 898f 003d adf1 de3c 7e68 98bd 998e 84bd
00000270: 1cf5 5ebd d4e5 52bc 4df1 a63d 2208 163d
00000280: 1801 4f3d 358c bdbe 329c 08be fc77 683d
00000290: a88b 383d dfa0 5c3c 0dda 8ebe f95e 63bd
000002a0: 4fce c73d eebb b1be d04e babd cd26 fe3c
000002b0: 3042 56bd 1b27 7f3c 6171 033b bd51 1fbd
000002c0: 42bb d6bd 536c f2be 26cd 603d 3415 e8bc
000002d0: d7f9 b13d 01ae 84bc e71c b93d cdd2 00bc
000002e0: 66ae 76be 5446 a3bd 4360 8b3d 25d2 6dbd
000002f0: c344 5fbb 9e65 f93d 4960 313e e2b1 993d
00000300: 3556 563d bbf5 a03d 59c6 533d a43f c43d
00000310: 3e56 d73b 5e3c 943d ddbe 38bd 7c52 693d
00000320: a46e 5ebd 6673 ed3b f16d f9bc b84d 263d
00000330: bd3a 8f3d d63d 97bd bebc 573d 8afc bfbd
00000340: 1594 583d 4b05 bfbd 0613 6e3d e60b b43d
00000350: 69ff 3ebd 4f05 0abe 2ae2 b93d bba0 36bd
00000360: 31c6 1d3d 99a2 0fbd 0557 aebd 2852 97bd
00000370: b1ec 6e3d b1e3 b8bc 9c6a 193d 16fd 96bd
00000380: 6a43 6e3c 179c 84bd f9d7 3b3d 5775 d3bc
00000390: dce1 59bd 4be8 58bd 6f9e bb3d 77d4 853d
000003a0: 0bef 7dbb 2271 a3bd ff37 3ebc e574 7ebd
000003b0: 9205 c53c 0adf a43d 54d0 453d 2867 9dbd
000003c0: 739e 0f3d 354a 9fbd 97a1 a03d e044 63bd
000003d0: 2c88 b8bd 4325 3e3d 36a2 c0bd fe7b 753c
000003e0: 6e05 873d c819 cfbd 4751 c8bd e065 f2bc
000003f0: 4859 a23c 3689 523c 11e7 6d3d b649 2bba

ode_block.odefunc.model.2.bias f4 [100]
0.03845429 0.032742206 0.009415282 -0.0038467098 -0.058723617 0.088789985 -0.004797795 0.08841183
0.008170411 0.04737338 -0.050228924 -0.022634644 -0.02349622 0.01045953 0.07653585 -0.040215384
-0.101538815 -0.07050564 0.07211614 -0.0053323107 0.008904009 -0.061812352 0.0526177 0.04444012
-0.052830275 0.07289575 0.009352935 0.042893022 0.010660814 0.04196849 -0.018036135 0.09679285
-0.09756836 0.029608682 0.06305874 -0.09841446 0.010183113 0.029581303 -0.028414639 0.06308803
-0.059702553 -0.0422937 -0.07325615 0.073678106 -0.018569028 0.048683744 0.006300922 -0.033003297
0.06415182 0.017157124 0.06989771 -0.017300988 0.08591316 -0.040224414 0.0923976 -0.026126692
-0.009984233 0.11405241 0.08379021 0.08339369 0.053039316 0.025393311 0.025135562 0.039127953
0.018101573 0.07893277 0.07176248 0.00048001256 -0.042081334 -0.016181853 0.028844137 -0.049342413
0.05699584 -0.07903577 -0.0374273 -0.07976938 0.053577214 0.0726085 -0.01051743 -0.058258753
0.06970063 -0.07927981 -0.019327374 -0.07448204 -0.063272096 -0.10587704 -0.038235005 -0.03719846
0.07643989 -0.044645596 0.065963544 0.0019474452 0.03997945 -0.0022155687 -0.09548059 -0.046231713
-0.048049923 0.020506786 -0.032228548 -0.10794849
00000000: 3f82 1d3d b11c 063d 8e42 1a3c 1519 7cbb
00000010: 2d88 70bd 86d7 b53d d236 9dbb 4311 b53d
00000020: 30dd 053c 970a 423d d8bc 4dbd 4a6c b9bc
00000030: 257b c0bc 735e 2b3c d4be 9c3d e3b8 24bd
00000040: 95f3 cfbd 4365 90bd a0b1 933d aaba aebb
00000050: 1fe2 113c f32e 7dbd a885 573d d806 363d
00000060: 8f64 58bd 5e4a 953d 0d3d 193c 98b0 2f3d
00000070: b2aa 2e3c 27e7 2b3d 84c0 93bc 543b c63d
00000080: ecd1 c7bd e88d f23c f124 813d 858d c9bd
00000090: 12d7 263c 7d54 f23c d1c5 e8bc 4c34 813d
000000a0: aa8a 74bd 293c 2dbd 5207 96bd 8ce4 963d
000000b0: 131e 98bc 9b68 473d f777 ce3b 772e 07bd
000000c0: 0862 833d 198d 8c3c 8826 8f3d cdba 8dbc
000000d0: 3df3 af3d 5bc2 24bd f43a bd3d a507 d6bc
000000e0: e994 23bc 4f94 e93d 349a ab3d 50ca aa3d
000000f0: c13f 593d a205 d03c 18e9 cd3c a244 203d
00000100: c049 943c 81a7 a13d 35f8 923d 32aa fb39
00000110: 7a5d 2cbd ce8f 84bc 8a4a ec3c 451b 4abd
00000120: 7874 693d 81dd a1bd 5e4d 19bd 215e a3bd
00000130: c873 5b3d c4b3 943d 4c51 2cbc bba0 6ebd
00000140: 34bf 8e3d 745d a2bd 7154 9ebc 0a8a 98bd
00000150: cd94 81bd 10d6 d8bd 4f9c 1cbd 6a5d 18bd
00000160: 848c 9c3d 4dde 36bd e517 873d 6b41 ff3a
00000170: 7ec1 233d 1333 11bb 548b c3bd 775d 3dbd
00000180: ffcf 44bd d9fd a73c 1502 04bd 1914 ddbd

ode_block.odefunc.model.4.weight f4 [6, 100]
0.058735702 -0.00021281764 0.04235095 -0.029121073 0.09280466 0.039154552 0.061573617 -0.0563769
-0.05431153 -0.043179408 -0.0029569387 0.039626822 -0.047901455 -0.042786736 -0.007862659 0.0498524
0.08840155 -0.05178503 -0.08734807 -0.016869849 0.061613314 -0.017470878 0.003321368 -0.03144445
-0.0844724 0.023665877 -0.06764538 -0.041097257 0.08027907 -0.048204295 -0.0064358613 0.08797913
-0.0084099155 0.003552586 0.012426535 -0.09119656 -0.05983259 0.055517066 0.039801918 -0.037013765
0.030872917 0.05573207 0.05222029 0.010620333 0.06916288 0.03983841 0.03980065 0.03491454
-0.052190073 0.0483406 -0.027742384 -0.08931028 -0.011881945 0.05747598 -0.046654474 -0.017759586
0.06466329 0.0015912261 0.072576456 -0.006466901 -0.07818013 0.059666313 0.082454376 0.091024734
0.0064567584 -0.08756976 0.04668285 0.07050474 0.038621295 -0.087131694 0.064500414 0.0019493911
-0.060362566 -0.0049728756 -0.021581529 -0.09012765 -0.04955459 -0.056761716 0.07163097 0.088537894
-0.04039018 0.03690233 -0.003001355 -0.01564087 0.028150415 -0.007980527 0.0418655 -0.0845261
-0.016881946 -0.07019782 0.08427574 -0.051031463 0.048259836 -0.044373427 0.012240765 -0.07905772
-0.09536046 0.018286845 0.002675945 -0.04330478 -0.08072173 0.031328164 -0.058424905 0.047664493
-0.025772298 -0.06339575 -0.033417735 -0.015778458 0.012591763 0.047885723 0.008502217 -0.034882754
-0.06355493 -0.018479299 -0.024215959 0.051751282 -0.07782929 0.056641843 -0.007032122 -0.041999098
-0.07403608 -0.05832726 -0.020532614 -0.010426985 -0.038886677 0.009181102 -0.075432256 0.04291539
0.014826633 0.09885878 -0.0011092386 0.08760838 -0.08796087 -0.0042618476 -0.056095324 -0.029731799
0.08778848 0.08631194 -0.008070578 0.038833458 -0.074359916 -0.007255403 0.041511565 -0.033978797
-0.03128246 0.035821784 0.037729602 -0.04173144 -0.04424531 -0.06389411 -0.04529084 0.04007581
-0.04146912 0.048553977 -0.041083828 -0.0538767 -0.008621215 0.08259704 0.0071689645 -0.029106187
-0.07185516 0.02394172 0.06672841 0.032901417 -0.020084172 0.018064415 -0.06575059 0.007680195
0.027202966 0.06441849 0.0744815 0.025734575 -0.055398777 0.06592578 -0.033766266 -0.022038681
0.061297547 -0.07057453 -0.0252249 0.071736954 0.012423885 0.053096656 0.018383488 -0.013519695
0.03585225 0.07926488 -0.08102633 0.026888005 0.0647036 0.056449044 -0.006927608 -0.046564255
0.00046129682 0.03997297 0.048532855 0.0024352514 0.026377378 -0.009822793 0.01321648 0.081832126
0.0036413544 0.2038316 0.105922304 -0.13176309 -0.03722321 -0.029935077 -0.049534567 -0.07611237
0.014734456 -0.03850427 -0.36012182 0.20775688 0.24561736 -0.09948526 -0.15522264 -0.010181338
-0.0068556145 0.0072757625 -0.02281972 -0.09188836 0.043193486 0.23626506 0.05890891 0.04639965
0.21539947 -0.12736334 -0.32619157 0.030962052 -0.048787963 0.06531055 -0.08800566 0.057122923
0.07352109 0.37685388 -0.03362116 0.0056663393 0.108874924 0.15677144 -0.11246131 0.0043165106
-0.06897218 -0.10938944 -0.065027565 0.13822336 0.092131086 -0.26219755 -0.0442807 -0.20213585
-0.030397886 0.06476765 -0.20915022 0.11129728 -0.12626573 -0.07643645 0.28264216 -0.018845918
00000000: d994 703d cd27 5fb9 3178 2d3d 518f eebc
00000010: 5f10 be3d 8660 203d 9e34 7c3d 77eb 66bd
00000020: c475 5ebd e4dc 30bd 33c9 41bb bc4f 223d
00000030: 5134 44bd 2541 2fbd 62d2 00bc 0832 4c3d
00000040: df0b b53d 8a1c 54bd 8ce3 b2bd a332 8abc
00000050: 3e5e 7c3d 161f 8fbc 4fab 593b e5cb 00bd
00000060: deff acbd f1de c13c a989 8abd 9955 28bd
00000070: 5a69 a43d de71 45bd ebe3 d2bb 672e b43d
00000080: bec9 09bc 81d2 683b aa98 4b3c 43c5 babd
00000090: 0513 75bd dd65 633d 5607 233d bf9b 17bd
000000a0: 33e9 fc3c 5047 643d f1e4 553d e800 2e3c
000000b0: 45a5 8d3d 9a2d 233d 0206 233d 8c02 0f3d
000000c0: 42c5 55bd cb00 463d ff43 e3bc 4fe8 b6bd
000000d0: 7dac 42bc ef6b 6b3d c318 3fbd 8d7c 91bc
000000e0: 306e 843d b090 d03a f7a2 943d 4ce8 d3bb
000000f0: e71c a0bd aa64 743d d7dd a83d 2d6b ba3d
00000100: 3793 d33b c657 b3bd 8436 3f3d ca64 903d
00000110: 5d31 1e3d 1a72 b2bd cb18 843d b682 ff3a
00000120: bd3e 77bd 81f3 a2bb bfcb b0bc d894 b8bd
00000130: c1f9 4abd f97e 68bd 42b3 923d 5b53 b53d
00000140: 2c70 25bd e626 173d 62b2 44bb 4821 80bc
00000150: b39b e63c c2c0 02bc 297b 2b3d 051c adbd
00000160: 024c 8abc e0c3 8fbd c298 ac3d 5e06 51bd
00000170: 1bac 453d e9c0 35bd 7d8d 483c 04e9 a1bd
00000180: 584c c3bd 4bce 953c e85e 2f3b 5a60 31bd
00000190: 6f51 a5bd f651 003d f44e 6fbd d83b 433d
000001a0: 6d20 d3bc a2d5 81bd 09e1 08bd d341 81bc
000001b0: af4d 4e3c d223 443d e24c 0b3c 38e1 0ebd
000001c0: 1629 82bd e661 97bc 8c60 c6bc 27f9 533d
000001d0: f664 9fbd 4701 683d b76d e6bb 3f07 2cbd
000001e0: 3aa0 97bd 91e8 6ebd 0334 a8bc f2d5 2abc
000001f0: a347 1fbd 556c 163c 3a7c 9abd 0cc8 2f3d
00000200: 68eb 723c 7976 ca3d df63 91ba 066c b33d
00000210: d424 b4bd f8a6 8bbb 36c4 65bd 1a90 f3bc
00000220: 72ca b33d 50c4 b03d 753a 04bc d50f 1f3d
00000230: 034a 98bd bbbe edbb 0808 2a3d 5a2d 0bbd
00000240: 0922 00bd ddb9 123d 5b8a 1a3d 96ee 2abd
00000250: 923a 35bd eada 82bd e382 39bd 8826 243d
00000260: 86db 29bd 89e0 463d 8447 28bd d1ad 5cbd
00000270: ff3f 0dbc a328 a93d a2e9 ea3b 1970 eebc
00000280: cc28 93bd 6d21 c43c e8a8 883d a3c3 063d
00000290: 9087 a4bc d3fb 933c 3fa8 86bd 25aa fb3b
000002a0: c1d8 de3c d7ed 833d c289 983d 51d1 d23c
000002b0: d4e9 62bd 1804 873d 7f4e 0abd 778a b4bc
000002c0: 2313 7b3d 6189 90bd 73a4 cebc d3ea 923d
000002d0: 8d8d 4b3c e17b 593d f898 963c b681 5dbc
000002e0: cfd9 123d a055 a23d 22f1 a5bd 3c44 dc3c
000002f0: 5283 843d 1d37 673d fd00 e3bb 29ba 3ebd
00000300: 36da f139 b2ba 233d 63ca 463d bd98 1f3b
00000310: 5f15 d83c c8ef 20bc ef89 583c 9a97 a73d
00000320: caa3 6e3b 3bb9 503e cbed d83d e7ec 06be
00000330: 5d77 18bd 683a f5bc c2e4 4abd cde0 9bbd
00000340: ca68 713c a7b6 1dbd e361 b8be 38be 543e
00000350: 1e83 7b3e eebe cbbd aff2 1ebe a0cf 26bc
00000360: 10a5 e0bb 8569 ee3b 6cf0 babc f72f bcbd
00000370: a7eb 303d 78ef 713e 784a 713d 8f0d 3e3d
00000380: ae91 5c3e 896b 02be 9502 a7be 21a4 fd3c
00000390: e3d5 47bd 8ac1 853d 503c b4bd baf9 693d
000003a0: 3a92 963d fef2 c03e 57b6 09bd b3ac b93b
000003b0: d1f9 de3d b188 203e 1e52 e6bd 8471 8d3b
000003c0: 4941 8dbd 9207 e0bd 2c2d 85bd 6d8a 0d3e
000003d0: 39af bc3d c23e 86be ae5f 35bd b3fc 4ebe
000003e0: fd04 f9bc e7a4 843d 7a2b 56be d4ef e33d
000003f0: ce4b 01be b78a 9cbd 79b6 903e c162 9abc

ode_block.odefunc.model.4.bias f4 [6]
-0.0276655 -0.017155735 -0.06280704 0.015142665 0.08381711 -0.033290975
00000000: c2a2 e2bc 2f8a 8cbc faa0 80bd f118 783c
00000010: 4ea8 ab3d 1e5c 08bd
