models/neuralODE_residual_dynamics_model.pt (torch, 48399 bytes, 6 tensors)

ode_block.odefunc.model.0.weight f4 [100, 6]
-0.27070212 0.18149929 -0.14187746 -0.059794366 0.22162062 0.25139397 -0.3221158 0.009618688
0.24456295 0.22080453 -0.25733593 -0.026863683 -0.19350298 -0.35210803 -0.26268244 0.042641215
-0.021182958 -0.22883935 0.32706195 -0.6129833 -0.18965763 -0.15474202 -0.09888779 -0.00014316477
0.9157773 -0.99826086 0.23323433 -0.11721897 -0.2236139 0.062494688 0.21631429 -0.09835616
0.034356773 0.1051285 0.21712366 -0.39515552 -0.095964596 0.42669445 -0.48914477 -0.041996874
0.261984 0.2804712 -0.44047228 -0.22007993 0.053196643 0.13310613 -0.07421023 -0.060874358
0.49354562 0.65756387 -0.44798136 -0.19327205 -0.26552168 0.22913817 0.43506724 -0.044751897
0.24696325 -0.26716074 0.2922548 0.23991585 -0.5477677 -0.09117428 -0.3590342 0.052408032
-0.23296079 -0.05389186 -0.44028762 -1.64261 0.15523401 -0.048565954 -0.1968704 -0.4962171
0.41586804 -0.39256966 -0.78815377 -0.13729493 -0.11010534 0.29210868 0.3027295 -0.062060192
0.17774633 0.29535136 0.31975892 -0.0768437 -0.4499911 0.092303105 0.075247474 0.38112447
-0.006081649 0.29088306 -0.89863926 -0.3292636 -0.066781245 0.27369994 0.44937414 -0.42097956
-0.19701527 -1.325095 -0.9506216 0.01719175 -0.28425723 -0.4880427 0.52117676 -1.2755523
-0.06200609 0.30763513 -0.32105342 -0.3591977 -0.4616979 -0.50658345 -0.23093724 -0.20073147
-0.011693382 0.35313845 -0.26226223 0.6931202 0.2223073 0.23488355 0.32234946 0.018524816
-0.2768505 0.063418634 -0.6294619 -0.123794176 -0.089419164 -0.21054871 -1.575907 1.1283828
0.36400935 0.015670847 0.03468181 -0.25712475 -0.12043834 -0.18062416 0.39597657 0.04336074
-0.15390699 0.4391777 -0.29432988 0.09363802 0.003474154 -0.19069752 -0.029866507 -0.2102497
0.12414781 0.21923853 -0.26620904 0.012546066 -0.046976335 0.30477065 -0.08357582 0.120631434
-0.12064455 0.33976108 0.30073282 -0.06439626 0.49741334 0.43918198 0.28639674 0.4474492
0.086976126 0.33974427 0.25223553 0.6771237 -0.17791292 -0.068765335 -0.28793815 0.24314214
-0.5581894 -0.07995532 -0.102931365 0.37118113 0.18026361 -0.09660005 -0.46021453 1.0843184
0.19905765 0.106455736 -0.2237223 -0.4212804 0.24171875 0.1855466 0.21683174 0.1046969
0.22433794 -0.22165856 0.5750562 0.014508241 0.33970225 -0.23101377 -0.081184834 -0.04175687
-1.5704767 1.3321865 -0.13107072 0.12144051 -0.1965527 -0.5804502 1.3860922 1.2937803
0.2955968 0.1371278 0.14535777 -0.18357301 0.07137161 0.012389341 -0.2631217 -0.03961335
-0.29231167 0.097183645 0.16146913 0.2608682 0.3543334 0.21332979 0.3148979 0.10136955
0.06875927 -0.10050569 -0.27686295 0.09633702 0.21416003 0.26367775 0.5923269 0.43723512
-0.20277667 -0.14661372 -0.30208892 -0.27297145 -0.5408094 -0.2749734 0.30300716 -0.031251978
-0.027734272 -0.17873028 -0.22348644 -0.7966366 0.04908451 0.4418922 0.37696275 0.1691615
-0.277154 -0.8825259 0.28058493 0.22407976 0.09498539 -0.31967354 0.013057334 -0.24018237
0.1865174 0.24761742 0.4381067 0.080396205 0.4849604 -0.15578529 0.3247361 -0.09613441
00000000: 7899 8abe f3da 393e 5348 11be f0ea 74bd
00000010: 84f0 623e b6b6 803e 5dec a4be b497 1d3c
00000020: b66e 7a3e 951a 623e 89c1 83be 3a11 dcbc
00000030: a525 46be 8147 b4be 507e 86be 8ea8 2e3d
00000040: e287 adbc dd54 6abe aa74 a73e 79ec 1cbf
00000050: 9c35 42be b174 1ebe af85 cabd 801e 16b9
00000060: 6270 6a3f 068e 7fbf fbd4 6e3e 8010 f0bd
00000070: 0bfb 64be 6efa 7f3d 7e81 5d3e f46e c9bd
00000080: b0b9 0c3d 9c4d d73d aa55 5e3e d351 cabe
00000090: 1689 c4bd b277 da3e 2f71 fabe ea04 2cbd
000000a0: c422 863e ec99 8f3e 9585 e1be a25c 61be
000000b0: b9e4 593d f94c 083e 88fb 97bd 6457 79bd
000000c0: 03b2 fc3e 1b56 283f d05d e5be 1ce9 45be
000000d0: 75f2 87be 32a3 6a3e 22c1 de3e c44d 37bd
000000e0: efe3 7c3e 4bc9 88be 6ca2 953e 80ac 753e
000000f0: 813a 0cbf 95b9 babd 55d3 b7be cea9 563d
00000100: 468d 6ebe b6bd 5cbd 616d e1be 0b41 d2bf
00000110: aaf5 1e3e 18ed 46bd 6598 49be 2b10 febe
00000120: a8ec d43e e4fe c8be 72c4 49bf 0b97 0cbe
00000130: e97e e1bd 458f 953e 5cff 9a3e d432 7ebd
00000140: 2203 363e 4b38 973e 71b7 a33e 3b60 9dbd
00000150: 3c65 e6be 6909 bd3d 591b 9a3d bf22 c33e
00000160: 9248 c7bb a0ee 943e 390d 66bf 3d95 a8be
00000170: 9bc4 88bd 6622 8c3e 5e14 e63e a28a d7be
00000180: 5fbe 49be b79c a9bf f05b 73bf b7d5 8c3c
00000190: 2a8a 91be bce0 f9be d76b 053f 4c45 a3bf
000001a0: 19fa 7dbd 5a82 9d3e 1d61 a4be c3e8 b7be
000001b0: ab63 ecbe 74af 01bf d07a 6cbe 8d8c 4dbe
000001c0: 9995 3fbc 90ce b43e 3c47 86be 5370 313f
000001d0: 86a4 633e 5085 703e fd0a a53e 5bc1 973c
000001e0: 59bf 8dbe a1e1 813d 6a24 21bf cd87 fdbd
000001f0: 6521 b7bd 159a 57be 52b7 c9bf d96e 903f
00000200: 6f5f ba3e 2660 803c 830e 0e3d dba5 83be
00000210: 60a8 f6bd 8af5 38be 71bd ca3e 089b 313d
00000220: cb99 1dbe e6db e03e 68b2 96be 4ac5 bf3d
00000230: a2ae 633b 3646 43be 9baa f4bc b34b 57be
00000240: 3541 fe3d 1180 603e 8d4c 88be 048e 4d3c
00000250: 426a 40bd e60a 9c3e cd29 abbd 9d0d f73d
00000260: 7d14 f7bd 2af5 ad3e a7f9 993e 30e2 83bd
00000270: f6ac fe3e 76dc e03e 98a2 923e 1018 e53e
00000280: 8a20 b23d f6f2 ad3e 0425 813e fb57 2d3f
00000290: ce2e 36be d7d4 8cbd a16c 93be 41fa 783e
000002a0: 80e5 0ebf 9dbf a3bd aecd d2bd 740b be3e
000002b0: 0697 383e 3fd6 c5bd 3da1 ebbe f2ca 8a3f
000002c0: c5d5 4b3e 7705 da3d 7517 65be 11b2 d7be
000002d0: 1f85 773e eeff 3d3e 2409 5e3e 546b d63d
000002e0: d8b8 653e 76fa 62be e236 133f f9b3 6d3c
000002f0: 74ed ad3e e08e 6cbe 3c44 a6bd 4009 2bbd
00000300: 6105 c9bf 1685 aa3f 6737 06be cdb5 f83d
00000310: 1c45 49be 6298 14bf 786b b13f 989a a53f
00000320: 7758 973e 3b6b 0c3e abd8 143e 90fa 3bbe
00000330: 472b 923d aafc 4a3c e3b7 86be 9c41 22bd
00000340: e0a9 95be 3808 c73d 2a58 253e 8490 853e
00000350: 306b b53e 2073 5a3e 4c3a a13e d79a cf3d
00000360: a9d1 8c3d edd5 cdbd fbc0 8dbe 584c c53d
00000370: c44c 5b3e c500 873e bca2 173f 48dd df3e
00000380: b0a4 4fbe e821 16be 66ab 9abe eac2 8bbe
00000390: 7c72 0abf 50c9 8cbe c123 9b3e 1302 00bd
000003a0: fc32 e3bc 1205 37be a1d9 64be 60f0 4bbf
000003b0: d70c 493d b23f e23e 4301 c13e ac38 2d3e
000003c0: 21e7 8dbe 38ed 61bf d4a8 8f3e 2a75 653e
000003d0: b387 c23d 40ac a3be 6eee 553c 5ef2 75be
000003e0: 6bfe 3e3e 6c8f 7d3e 854f e03e c4a6 a43d
000003f0: bb4c f83e 2e86 1fbe cf43 a63e 1ee2 c4bd

ode_block.odefunc.model.0.bias f4 [100]
-0.38190863 -0.23083201 0.29725254 0.26135448 0.037132923 0.24607022 -0.17101575 0.1456162
-0.11827809 0.2031619 0.06013582 0.17205793 -0.4302924 0.2228032 -0.23302695 -0.08616235
-0.39845958 -0.09022788 0.2919839 0.29477128 0.15107882 -0.064011276 -0.3244545 0.18832545
0.332857 -0.5078507 0.3382682 -0.20772813 0.1667981 -0.37631014 -0.39208195 0.38217273
-0.15727046 -0.05016221 0.38696685 -0.0026932578 -0.08650974 0.062664054 0.28640997 -0.13891535
0.331926 0.22427289 -0.0331903 0.28868324 -0.3859245 -0.4280727 0.109060444 -0.40587363
0.41556948 0.14035942 0.010621211 0.17527916 0.12173632 -0.25007692 0.29611278 -0.6604093
0.2331262 -0.03522528 -0.13564633 0.21884991 0.11930981 0.2015325 0.3370713 0.099794224
-0.028325234 0.2981959 -0.43443343 -0.33126894 0.0095895715 0.04545984 -0.20199743 -0.28370583
0.11971358 -0.35318443 0.04908355 0.3091535 0.26997986 -0.063368455 0.04073144 -0.21669295
-0.050250314 0.22008646 -0.0076589207 0.34183478 0.094275564 -0.061678465 0.19180307 -0.25816306
-0.021954954 -0.24282247 -0.33794504 0.26982772 0.26416054 0.030095076 0.04411301 -0.5683848
0.18848473 -0.18196678 0.17889391 0.3364952
00000000: 8789 c3be 3a5f 6cbe 7c31 983e 41d0 853e
00000010: b118 183d d5f9 7b3e c11e 2fbe 6a1c 153e
00000020: c93b f2bd ac09 503e fa50 763d f42f 303e
00000030: 494f dcbe 8626 643e 9e9e 6ebe e375 b0bd
00000040: e502 ccbe 65c9 b8bd ea7e 953e 43ec 963e
00000050: 68b4 1a3e 5818 83bd e61e a6be 63d8 403e
00000060: 3c6c aa3e 8102 02bf 7d31 ad3e afb6 54be
00000070: 1fcd 2a3e b9ab c0be f7be c8be 25ac c33e
00000080: 820b 21be e476 4dbd 8520 c63e 5e81 30bb
00000090: 052c b1bd 0356 803d 54a4 923e d33f 0ebe
000000a0: 34f2 a93e cba7 653e 8df2 07bd 4ace 933e
000000b0: e597 c5be 582c dbbe 155b df3d abce cfbe
000000c0: 86c5 d43e 61ba 0f3e 9604 2e3c 617c 333e
000000d0: e450 f93d 150a 80be 189c 973e 9510 29bf
000000e0: a2b8 6e3e 6248 10bd dfe6 0abe 311a 603e
000000f0: b458 f43d 895e 4e3e 9c94 ac3e ea60 cc3d
00000100: 520a e8bc 22ad 983e 0f6e debe 159c a9be
00000110: 941d 1d3c 1934 3a3d 6ad8 4ebe e441 91be
00000120: 652c f53d 97d4 b4be d50b 493d 5e49 9e3e
00000130: cd3a 8a3e 52c7 81bd 03d6 263d c2e4 5dbe
00000140: 46d3 4dbd 585e 613e aff7 fabb f804 af3e
00000150: 8c13 c13d 8fa2 7cbd 0668 443e f32d 84be
00000160: e0da b3bc 74a6 78be 2207 adbe dc26 8a3e
00000170: 0d40 873e f389 f63c d8af 343d ab81 11bf
00000180: 2402 413e 8055 3abe f72f 373e 1949 ac3e

ode_block.odefunc.model.2.weight f4 [100, 100]
-0.08766579 -0.06761177 -0.009587551 -0.070020966 -0.023822272 -0.034774065 -0.061484683 -0.052552428
-0.014098013 -0.06881098 0.061319556 -0.089783154 -0.045301355 -0.056043852 0.072448544 -0.060155224
-0.08253201 -0.016800273 -0.094008915 -0.059971847 0.0023583889 0.06110958 -0.09647918 0.05495603
0.07289425 -0.01596359 -0.028997732 -0.05220474 0.09364896 0.0828473 0.03716458 0.039568555
0.07610684 0.057196368 0.03419734 -0.09124491 -0.034126747 -0.052586734 -0.01673062 0.022132957
0.048609924 -0.09989814 -0.09915798 0.025755644 0.040642645 -0.07272656 0.08654574 0.08272698
0.029772544 -0.07864802 0.01667515 0.0046856045 0.018530607 -0.056314673 0.017114175 -0.04184866
-0.07749454 0.053673413 0.017215574 -0.009025705 0.008903575 -0.004182303 0.018854667 -0.013232708
-0.07707757 -0.0711643 0.07646976 -0.087227 -0.055695653 -0.0050402405 -0.043478526 0.023471987
0.02709849 -0.047155943 -0.054345287 -0.023383057 -0.034406006 -0.04978725 0.09396477 0.04404955
-0.0676045 0.07520391 -0.06270943 0.033748735 0.094021976 -0.07758641 0.047071364 -0.0039057613
-0.08829762 -0.06857788 -0.09486403 0.019924331 0.0834889 0.051975846 0.03051815 -0.07280141
-0.029290462 0.08115953 -0.048797775 0.033017684 -0.12426379 0.1378118 0.18906665 0.1002827
0.49870098 0.33026087 0.27054527 0.10686939 0.047058787 -0.1083997 -0.009735239 0.47982422
-2.1560512 0.121586666 0.09646506 0.3481756 0.64361894 0.27608263 0.089673005 -0.017190652
-0.0733915 -0.37468958 0.98656166 -0.14314242 -0.005788626 0.5788794 -0.18735646 0.5259026
0.16281039 -0.6808721 0.4332144 -0.13064478 0.09553333 0.101725884 0.0024369864 -0.02109029
0.29728037 -0.11269555 -0.1357466 -0.06692939 0.30169004 0.110791914 0.22192138 0.094837084
0.99684423 -0.025927307 0.39356306 1.2792068 -0.26500162 -0.24948867 0.1286766 0.25222978
-0.15971972 -0.036437467 0.08011194 1.1160835 0.17691964 -0.0014625574 0.15850893 0.04394668
0.15658374 -0.18582888 0.056247577 0.20397767 0.04482661 -0.24438879 0.6732512 -0.030961368
0.10480618 -0.13927133 -0.20202082 -0.100737646 0.02086207 -0.047477935 -0.038808092 -0.09499719
-0.023519019 -0.23477766 0.07361177 -0.039462578 -0.09441675 -0.10737931 0.048402593 -0.16336277
0.02821343 -0.18212791 0.39053252 0.94526154 0.283629 0.3450079 0.11524977 -0.09071107
-0.20642094 -0.041875333 0.42101786 0.040926784 0.10419765 -0.008789119 -0.3194095 0.00036611586
-0.037474133 0.023361003 -0.12559927 0.035767183 0.056135595 -0.041822847 -0.0054927263 -0.023833359
-0.009035528 -0.14425118 -0.044034433 0.08402661 0.07651229 -0.10099663 -0.13810632 -0.04880876
0.030008603 -0.02801081 -0.12526168 -0.0913266 -0.044748332 0.021061933 0.037476398 0.004129374
-0.09890533 -0.076579235 -0.14109126 0.08681195 0.013418819 0.076149784 -0.019135684 -0.10784953
0.02835232 -0.09094542 -0.07866939 0.031002965 0.015064033 0.0037235976 -0.040561803 -0.017523445
-0.080010764 -0.07117795 -0.09906086 -0.106962696 -0.0011622667 0.02438711 0.064752415 -0.01846797
-0.025768494 -0.13319698 0.025144452 0.039764605 -0.056327432 0.09685164 -0.0288204 0.026823068
00000000: 1f8a b3bd 0a78 8abd 1a15 1dbc 2767 8fbd
00000010: ed26 c3bc 406f 0ebd 5dd7 7bbd 3741 57bd
00000020: 5afb 66bc c5ec 8cbd 372a 7b3d 3be0 b7bd
00000030: ea8d 39bd 3d8e 65bd e75f 943d 5365 76bd
00000040: 8b06 a9bd baa0 89bc bf87 c0bd 0aa5 75bd
00000050: 338f 1a3b 0a4e 7a3d e096 c5bd 9319 613d
00000060: 9549 953d 13c6 82bc a78c edbc a3d4 55bd
00000070: 07cb bf3d d8ab a93d e339 183d a312 223d
00000080: e7dd 9b3d bd46 6a3d 8312 0c3d 9dde babd
00000090: 7dc8 0bbd 3065 57bd a70e 89bc 2d50 b53c
000000a0: 331b 473d 6597 ccbd 5713 cbbd 80fd d23c
000000b0: e778 263d aaf1 94bd e53e b13d c36c a93d
000000c0: 8de5 f33c 3712 a1bd 539a 883c b389 993b
000000d0: 80cd 973c 37aa 66bd 0733 8c3c 8069 2bbd
000000e0: 75b5 9ebd a7d8 5b3d ad07 8d3c 8de0 13bc
000000f0: 4de0 113c b30b 89bb 1a75 9a3c 00ce 58bc
00000100: d8da 9dbd 97be 91bd 2d9c 9c3d 12a4 b2bd
00000110: 2021 64bd 9a28 a5bb 8a16 32bd 5348 c03c
00000120: a7fd dd3c 9726 41bd 2a99 5ebd d38d bfbc
00000130: 50ed 0cbd b7ed 4bbd 9a70 c03d 4d6d 343d
00000140: 3a74 8abd 8204 9a3d cd6d 80bd 1d3c 0a3d
00000150: 988e c03d a0e5 9ebd e7cd 403d cdf7 7fbb
00000160: 62d5 b4bd 8f72 8cbd 1348 c2bd 5a38 a33c
00000170: 3afc aa3d a0e4 543d 3301 fa3c e818 95bd
00000180: 8df2 efbc f836 a63d 2de0 47bd 8d3d 073d
00000190: 047e febd 891e 0d3e b09a 413e 0461 cd3d
000001a0: bc55 ff3e f417 a93e e984 8a3e 57de da3d
000001b0: b7c0 403d a900 debd 8d80 1fbc 85ab f53e
000001c0: befc 09c0 6e02 f93d 798f c53d 1244 b23e
000001d0: 36c4 243f b45a 8d3e 7ba6 b73d 69d3 8cbc
000001e0: 484e 96bd 50d7 bfbe 4e8f 7c3f ed93 12be
000001f0: 84ae bdbb 7131 143f 5fda 3fbe 8ea1 063f
00000200: c4b7 263e a24d 2ebf 47ce dd3e bfc7 05be
00000210: fba6 c33d a955 d03d d9b5 1f3b 8bc5 acbc
00000220: 2235 983e edcc e6bd 2801 0bbe 4712 89bd
00000230: 1e77 9a3e dfe6 e23d 5c3f 633e f239 c23d
00000240: 2f31 7f3f 8165 d4bc 1981 c93e 0cbd a33f
00000250: 4bae 87be f579 7fbe ccc3 033e 4324 813e
00000260: 918d 23be 743f 15bd bb11 a43d d3db 8e3f
00000270: 6c2a 353e 48b3 bfba 2a50 223e 6f01 343d
00000280: 7d57 203e ed49 3ebe dc63 663d 86df 503e
00000290: 1b9c 373d 0e41 7abe 315a 2c3f b2a2 fdbc
000002a0: 9fa4 d63d 259d 0ebe 8cde 4ebe 8a4f cebd
000002b0: efe6 aa3c 3978 42bd 3cf5 1ebd e38d c2bd
000002c0: f5aa c0bc 8e69 70be c5c1 963d 83a3 21bd
000002d0: 925d c1bd afe9 dbbd cc41 463d 9248 27be
000002e0: da1f e73c bd7f 3abe e1f3 c73e a9fc 713f
000002f0: d237 913e e0a4 b03e 1208 ec3d bac6 b9bd
00000300: 0360 53be 7885 2bbd a78f d73e d8a2 273d
00000310: 9465 d53d 3d00 10bc a489 a3be 3df3 bf39
00000320: 7a7e 19bd 935f bf3c 189d 00be 9c80 123d
00000330: 70ee 653d 6f4e 2bbd 54fc b3bb 2d3e c3bc
00000340: c009 14bc 95b6 13be 735d 34bd 2516 ac3d
00000350: 7ab2 9c3d 52d7 cebd be6b 0dbe b2eb 47bd
00000360: 9ad4 f53c ed76 e5bc 9944 00be 7109 bbbd
00000370: 074a 37bd 138a ac3c da80 193d b34f 873b
00000380: e18e cabd 93d5 9cbd 3a7a 10be 77ca b13d
00000390: 9bda 5b3c 6bf4 9b3d 70c2 9cbc 37e0 dcbd
000003a0: 2043 e83c 9841 babd 6b1d a1bd eef9 fd3c
000003b0: 22cf 763c 9a07 743b 2224 26bd 548d 8fbc
000003c0: afdc a3bd bfc5 91bd 6ce0 cabd 420f dbbd
000003d0: 3357 98ba 7ac7 c73c ea9c 843d 244a 97bc
000003e0: 7318 d3bc ca64 08be bdfb cd3c 36e0 223d
000003f0: 98b7 66bd 275a c63d c218 ecbc 0dbc db3c

ode_block.odefunc.model.2.bias f4 [100]
-0.08258386 -0.1059536 -0.15067126 -0.10065007 -0.061042618 -0.1297241 -0.15644452 -0.02673666
-0.10187331 -0.1559991 -0.11261635 -0.0931053 0.003923313 -0.12202771 0.0085478965 -0.010953046
-0.10219747 0.03960154 0.08200206 -0.08483597 0.0819852 -0.021092694 -0.09168586 0.011912381
-0.059410077 0.0094614 0.10783287 -0.08146198 -0.038611926 -0.038470965 -0.09367484 -0.043134294
-0.0030804777 0.03434453 0.023239272 -0.04420148 -0.085296534 0.013349595 -0.07811563 -0.004135826
-0.13274188 0.02590645 -0.12127631 0.012170826 -0.0466042 -0.1535264 0.010759524 -0.013780192
-0.06846168 -0.05488352 0.011922369 -0.076173425 0.039259806 0.008614789 -0.04189504 -0.024222761
-0.07419889 -0.14098969 -0.04429598 -0.008297508 -0.06047574 -0.108185425 -0.09091083 -0.1174415
-0.053824186 -0.0103428615 0.09260091 -0.16702865 0.030340075 -0.025421698 -0.09946778 -0.117138185
0.11312214 0.014858265 0.0516095 -0.07919436 -0.0073145344 -0.022826428 -0.0419778 0.0381379
0.042717494 -0.06738991 -0.018584648 0.026902495 0.01957861 -0.065551355 -0.061011244 0.047769897
0.029658021 0.043855514 -0.0150541365 -0.1513935 -0.015884016 -0.037644614 0.0052354876 -0.037961546
-0.12345969 -0.06515168 -0.07994214 0.0971134
00000000: ba21 a9bd 33fe d8bd 9149 1abe a021 cebd
00000010: d307 7abd 65d6 04be fe32 20be d706 dbbc
00000020: f4a2 d0bd 3abe 1fbe 67a3 e6bd fead bebd
00000030: 238f 803b aae9 f9bd 7a0c 0c3c 6874 33bc
00000040: e84c d1bd 3935 223d b2f0 a73d 7bbe adbd
00000050: dbe7 a73d 96ca acbc ccc5 bbbd 262c 433c
00000060: fb57 73bd fd03 1b3c 7bd7 dc3d 8ad5 a6bd
00000070: 8a27 1ebd bb93 1dbd 98d8 bfbd 96ad 30bd
00000080: d7e1 49bb daac 0c3d 4960 be3c 9c0c 35bd
00000090: f3af aebd 42b8 5a3c 16fb 9fbd d385 87bb
000000a0: 7ded 07be c339 d43c b75f f8bd 2568 473c
000000b0: 0ce4 3ebd 0636 1dbe b748 303c 50c6 61bc
000000c0: a335 8cbd 8bcd 60bd 0a56 433c d000 9cbd
000000d0: e4ce 203d 0b25 0d3c 229a 2bbd d06e c6bc
000000e0: 96f5 97bd 9a5f 10be b46f 35bd 45f2 07bc
000000f0: 69b5 77bd 5290 ddbd 752f babd 2b85 f0bd
00000100: c076 5cbd 1b75 29bc 8ca5 bd3d 8f09 2bbe
00000110: c08b f83c 2a41 d0bc c3b5 cbbd 25e6 efbd
00000120: 95ac e73d 1570 733c 7c64 533d a730 a2bd
00000130: c3ae efbb 7dfe babc eaf0 2bbd 7d36 1c3d
00000140: 8af8 2e3d b903 8abd d53e 98bc 9f62 dc3c
00000150: 5263 a03c ca3f 86bd ede6 79bd 5eaa 433d
00000160: 61f5 f23c d7a1 333d a0a5 76bc e606 1bbe
00000170: 321f 82bc 3d31 1abd 748e ab3b 917d 1bbd
00000180: 6fd8 fcbd 3e6e 85bd b4b8 a3bd 64e3 c63d

ode_block.odefunc.model.4.weight f4 [6, 100]
0.08612125 0.0815671 -0.048708696 0.014971272 0.0017776081 -0.024604244 0.014546481 0.021344101
0.0082547 0.015013316 0.017716516 -0.06236926 -0.12250174 -0.04436459 -0.0481765 -0.048992172
-0.05134436 0.015356518 0.04227982 0.000254642 -0.01630365 -0.041701447 -0.14166918 -0.053114254
-0.008701458 -0.09348204 0.0041732015 0.024821535 -0.0492864 0.051480107 -0.038164347 0.0036937362
-0.03577231 -0.0059182197 -0.08060818 -0.0044644345 0.03630291 0.046470966 0.014738893 -0.0995573
-0.04106037 -0.08650706 -0.019802997 0.025885098 -0.05220355 -0.04467138 -0.04185959 -0.11159647
-0.032233436 -0.018315611 0.041698456 -0.08325088 -0.02137599 -0.026679268 -0.022243628 -0.020837178
-0.025954088 0.040190585 0.023535548 0.019359661 -0.076275736 0.01596547 -0.046821985 0.027900685
0.008512667 -0.02339776 -0.10832269 -0.021500196 -0.002370625 -0.07915854 0.07218118 0.0048134117
-0.0013266249 -0.043858334 -0.101858094 0.005113583 -0.035110615 0.012133556 -0.04325435 -0.01844592
-0.09599062 -0.0016885597 0.028811196 -0.10000635 -0.09903758 -0.04881613 -0.058585957 -0.03197446
-0.045015473 -0.031437416 0.03147434 -0.026039654 -0.06994621 -0.046463467 0.033069685 -0.0104747405
0.018888697 0.0029000856 -0.022234911 -0.065575145 -0.07371366 0.16244529 -0.10093802 0.009450971
0.062327806 0.00912695 0.12520798 0.14933072 0.07987475 -0.051164966 0.026770119 0.02438859
0.010660557 0.021879382 0.0052255746 0.13239312 0.0009902443 -0.088754274 -0.14823227 0.035504237
-0.06259628 -0.043472324 0.081964426 -0.05910348 -0.015924927 -0.02304775 0.09747636 0.010109017
-0.1129385 0.0007768292 0.08294112 -0.030534985 0.07950977 -0.0015995482 -0.067892216 0.0012207755
-0.029907357 0.048188977 0.13432881 -0.07131447 -0.0345261 0.012675448 -0.04332668 0.012408004
-0.05956785 0.02011575 -0.031094695 -0.023667729 0.047486156 0.025768742 0.00424595 0.063634686
0.3636165 0.0036101376 0.0076919417 0.15985753 -0.08980962 0.028680354 0.055264566 -0.09807085
-0.13035949 -0.0011854913 -0.054476965 -0.030248241 -0.033161283 0.042823624 -0.050779708 0.098252006
0.1418941 -0.057127804 0.074561946 -0.13294111 0.062307276 0.16272101 -0.041233644 0.016948037
-0.044559352 -0.14098363 -0.13740112 0.11437249 -0.051318817 0.053675063 -0.025954159 0.12462452
-0.10239769 0.0250138 0.020866163 -0.0109101115 -0.04276033 -0.16146791 0.084591374 -0.08914407
0.021467905 0.054233506 0.11740447 0.024440218 0.029924458 0.08937944 0.05685878 -0.015736308
0.047273636 0.47818044 0.030333633 -0.013378221 -0.049006823 0.15366274 -0.133082 0.11997175
0.03317766 -0.14426832 0.061701085 -0.07334415 -0.09630935 -0.044823196 -0.11567465 -0.14158067
-0.04511161 -0.099132106 -0.19218777 0.011731355 -0.06412061 -0.06628556 0.5195641 0.4319062
-0.017596249 -0.14288671 0.08745373 0.032171275 -0.089069076 0.02139012 -0.12123446 -0.041661005
0.037804868 -0.07681148 -0.012452792 -0.11361234 0.12448248 0.23056641 -0.06389562 -0.08466416
0.023832675 -0.1927978 -0.13262278 -0.008676797 0.3427447 0.00693731 0.08276434 0.05212832
0.00056510797 0.012384096 -0.32968694 0.038225282 -0.14471895 0.1465155 -0.13568129 -0.152984
00000000: 5760 b03d a70c a73d c582 47bd 114a 753c
00000010: a1fe e83a d78e c9bc 5d54 6e3c d3d9 ae3c
00000020: b93e 073c 69fa 753c 3a22 913c e976 7fbd
00000030: 31e2 fabd a5b7 35bd b954 45bd 04ac 48bd
00000040: 774e 52bd e899 7b3c 9b2d 2d3d 7881 8539
00000050: 3b8f 85bc 23cf 2abd ba11 11be 558e 59bd
00000060: 8f90 0ebc 8373 bfbd 5abf 883b 8856 cb3c
00000070: 89e0 49bd cedc 523d 3852 1cbd 9c12 723b
00000080: fc85 12bd a0ed c1bb e715 a5bd 644a 92bb
00000090: 5cb2 143d 5758 3e3d 667b 713c b3e4 cbbd
000000a0: eb2e 28bd 9d2a b1bd e539 a2bc fc0c d43c
000000b0: 64d3 55bd 56f9 36bd f674 2bbd b18c e4bd
000000c0: 3507 04bd 9f0a 96bc 00cc 2a3d 707f aabd
000000d0: b31c afbc 7b8e dabc 4538 b6bc bbb2 aabc
000000e0: ab9d d4bc e29e 243d 9fcd c03c 2798 9e3c
000000f0: 7436 9cbd 04ca 823c 69c8 3fbd fa8f e43c
00000100: b778 0b3c a9ac bfbc 49d8 ddbd 2e21 b0bc
00000110: 7d5c 1bbb df1d a2bd bad3 933d d3b9 9d3b
00000120: 25e2 adba cca4 33bd fa9a d0bd d88f a73b
00000130: 26d0 0fbd d3cb 463c 792b 31bd e61b 97bc
00000140: bb96 c4bd a952 ddba 7505 ec3c 21d0 ccbd
00000150: 37d4 cabd 6cf3 47bd d4f7 6fbd a7f7 02bd
00000160: 2562 38bd 85c4 00bd 3deb 003d 1d51 d5bc
00000170: f53f 8fbd 7a50 3ebd 1474 073d 3f9e 2bbc
00000180: 78bc 9a3c 5d0f 3e3b fd25 b6bc 434c 86bd
00000190: 30f7 96bd 0f58 263e 98b8 cebd 3fd8 1a3c
000001a0: 714b 7f3d 3489 153c 8536 003e 27ea 183e
000001b0: 5f95 a33d 5b92 51bd 024d db3c 95ca c73c
000001c0: 9ea9 2e3c 643c b33c 4c3b ab3b 1092 073e
000001d0: 16cb 813a cdc4 b5bd 33ca 17be e46c 113d
000001e0: 7a32 80bd 0910 32bd f7dc a73d 7e16 72bd
000001f0: fe74 82bc a3ce bcbc b0a1 c73d 4aa0 253c
00000200: 4d4c e7bd 20a4 4b3a 09dd a93d 8124 fabc
00000210: 05d6 a23d eea7 d1ba 130b 8bbd 6e02 a03a
00000220: 4600 f5bc ce61 453d 7e8d 093e 520d 92bd
00000230: 3d6b 0dbd afac 4f3c 5177 31bd f14a 4b3c
00000240: 6bfd 73bd c9c9 a43c 4dba febc d3e2 c1bc
00000250: d880 423d f818 d33c 9c21 8b3b e752 823d
00000260: f12b ba3e 0f98 6c3b af0c fc3b b1b1 233e
00000270: 1bee b7bd 10f3 ea3c 195d 623d 5fd9 c8bd
00000280: f57c 05be 7d62 9bba 3d23 5fbd 29cb f7bc
00000290: 20d4 07bd d367 2f3d 62fe 4fbd 5938 c93d
000002a0: b04c 113e d8fe 69bd efb3 983d b721 08be
000002b0: ea35 7f3d 56a0 263e 9ce4 28bd 9cd6 8a3c
000002c0: de83 36bd 035e 10be e1b2 0cbe 203c ea3d
000002d0: ae33 52bd 62da 5b3d d19d d4bc 243b ff3d
000002e0: e1b5 d1bd bee9 cc3c 84ef aa3c 53c0 32bc
000002f0: 7525 2fbd d857 25be 3e3e ad3d 2b91 b6bd
00000300: 76dd af3c f423 5e3d c171 f03d da36 c83c
00000310: 2324 f53c 910c b73d c1e4 683d 6ee9 80bc
00000320: 00a2 413d 11d4 f43e 3d7e f83c 5330 5bbc
00000330: 61bb 48bd c459 1d3e a646 08be c0b3 f53d
00000340: 4ce5 073d 13bb 13be 47ba 7c3d 7535 96bd
00000350: d63d c5bd 8798 37bd d5e6 ecbd 86fa 10be
00000360: f4c6 38bd c605 cbbd dfcc 44be df34 403c
00000370: ab51 83bd b9c0 87bd 2702 053f cf22 dd3e
00000380: 0226 90bc e550 12be f11a b33d 07c6 033d
00000390: d969 b6bd 553a af3c c649 f8bd bba4 2abd
000003a0: 47d9 1a3d 564f 9dbd cc06 4cbc 96ad e8bd
000003b0: acf0 fe3d 9a19 6c3e b5db 82bd 6764 adbd
000003c0: be3c c33c c96c 45be 44ce 07be 2029 0ebc
000003d0: 3c7c af3e 6052 e33b 5a80 a93d 8184 553d
000003e0: c123 143a aae6 4a3c bacc a8be 1d92 1c3d
000003f0: 3431 14be 2908 163e 09f0 0abe d6a7 1cbe

ode_block.odefunc.model.4.bias f4 [6]
-0.06004903 0.06133587 -0.072197974 0.08609254 -0.01593038 -0.047916077
00000000: f9f5 75bd 523b 7b3d 88dc 93bd 4951 b03d
00000010: 6e80 82bc a643 44bd
