models/neuralODE_multi_step_residual_dynamics_model.pt (torch, 48679 bytes, 6 tensors)

ode_block.odefunc.model.0.weight f4 [100, 6]
0.2388731 -0.06559675 0.07377778 0.044535924 -0.23087339 -0.032654647 -0.22212699 -0.38301578
-0.26022646 0.22149116 0.26358113 -0.35295868 -0.537151 -0.56572145 -0.2431545 0.26213995
0.54856664 -0.43001875 -0.35451528 0.2734177 0.059359957 0.18571933 0.058497433 -0.19820097
0.51360625 -0.24878183 -0.3004796 0.18726993 -0.32309216 -0.027275287 0.36353165 0.023660265
0.23238853 -0.32589707 -0.2004642 0.32598364 0.22676735 0.24325594 0.3528504 0.13545175
0.0062766867 0.30827102 0.478278 0.7503012 -0.3462904 -0.17698947 0.047336973 -0.0686983
-0.13377386 0.40779877 0.28412226 -0.023786774 0.05099246 -0.013142883 -0.22087362 -0.19843587
0.3254586 -0.27348247 0.13798684 0.06503103 0.05645879 0.18176186 -0.21745749 0.0784778
-0.0424499 -0.19853386 -0.024412388 -0.3554576 0.41451815 -0.09933488 0.060811725 -0.29070798
0.15041861 0.6929555 -0.3581404 -0.6659287 0.031000473 0.36614496 0.21366483 -0.42624426
0.0468202 -0.11681263 0.32467526 -0.46723366 -0.07070097 0.31861073 0.047610488 -0.46040022
-0.06848242 0.28344736 0.4655997 -0.27401838 -0.27536348 -0.16127114 0.02103064 0.07330128
-0.005698047 0.2018892 -0.07926214 0.0017950472 0.03536226 0.21855499 0.45450744 -0.76000464
-0.3557297 -0.5080146 -0.42739815 -0.3362704 -0.2641256 -0.13903654 -0.16265537 0.30250964
-0.38356176 0.26648462 -0.19438522 0.35057527 0.033925887 0.13003205 -0.23343529 0.31643683
0.14855315 -0.18274252 -0.23149979 0.14576884 0.18842296 0.014079473 -0.6573307 -0.16429245
-0.066185825 -0.182446 0.038572155 0.03498809 0.4183363 0.03057349 0.28407142 -0.010744873
-0.17908014 0.02106588 -0.116920024 0.40482405 -0.16549133 0.19778536 -0.24963193 0.07360244
-0.24135654 -0.15856655 0.22685567 -0.1203109 0.13423921 0.27949557 0.35309583 0.1993254
0.14723003 0.07198528 0.061865937 -0.29281512 -0.14503604 -0.24332492 -5.653371e-05 -0.30553934
0.17846003 -0.17040874 0.04599047 -0.020080343 -0.06709424 -0.13790458 -0.097890235 0.003772119
-0.3164818 -0.17175798 -0.15710087 -0.18419743 0.12436578 0.05077461 -0.046919648 0.28033432
-0.20315985 0.058551826 0.0456045 -0.013766578 0.149243 -0.06876216 0.04190867 -0.14705588
-0.15377745 -0.21288766 0.003982602 -0.21123928 0.19434057 0.22760212 -0.32074112 -0.42920446
-0.43896106 0.02081749 -0.5553091 -0.3590343 -0.09588603 -0.06929257 -0.18559189 0.16218331
0.29057142 -0.04559214 0.05294735 0.17358096 0.12699702 -0.16314234 -0.29087695 -0.2166915
0.08072803 -0.06825552 -0.21745794 0.22002536 -0.32424128 0.2842773 0.053989187 -0.32429528
0.24062017 -0.21577485 0.11937361 -0.14651762 0.091911964 0.28425053 0.36719507 0.44756797
0.18979414 -0.00080859807 0.060713045 0.17726156 0.41301933 0.8993815 -0.34020457 -0.62427217
-0.8074551 -0.20234065 -0.3760821 0.578544 -0.15420978 0.0130262915 -0.0530624 -0.10163748
-0.03105837 -0.3222492 0.12098213 -0.14350268 -0.045989234 -0.40734878 0.58712476 0.18225908
-0.39267477 0.028003938 0.20978265 -0.0047727386 0.43637368 -0.22136262 0.06604349 0.08882784
00000000: 269b 743e 9757 86bd ce18 973d 4d6b 363d
00000010: 136a 6cbe e1c0 05bd 4275 63be a51a c4be
00000020: 673c 85be 94ce 623e 1bf4 863e 00b7 b4be
00000030: ba82 09bf 1fd3 10bf 7efd 78be 3537 863e
00000040: dd6e 0c3f 6b2b dcbe 0783 b5be 68fd 8b3e
00000050: 6d23 733d 352d 3e3e 019b 6f3d 32f5 4abe
00000060: b37b 033f aac0 7ebe 76d8 99be b0c3 3f3e
00000070: 566c a5be 6c70 dfbc d220 ba3e 2cd3 c13c
00000080: 42f7 6d3e fbdb a6be 7d46 4dbe 54e7 a63e
00000090: b335 683e 1618 793e cfa8 b43e ddb3 0a3e
000000a0: aaac cd3b b3d5 9d3e dbe0 f43e bd13 403f
000000b0: fa4c b1be ba3c 35be 6ae4 413d b2b1 8cbd
000000c0: 04fc 08be 00cb d03e 7978 913e 7bdc c2bc
000000d0: 78dd 503d 3f55 57bc b22c 62be c632 4bbe
000000e0: 82a2 a63e e505 8cbe 6c4c 0d3e fd2e 853d
000000f0: 5541 673d c81f 3a3e 2dad 5ebe f8b8 a03d
00000100: f2df 2dbd 764c 4bbe 7dfc c7bc 8afe b5be
00000110: b93b d43e 1670 cbbd b715 793d add7 94be
00000120: 5607 1a3e 8865 313f 2e5e b7be 4e7a 2abf
00000130: b4f4 fd3c 5a77 bb3e f4ca 5a3e b03c dabe
00000140: 8ac6 3f3d 763b efbd d63b a63e 4039 efbe
00000150: accb 90bd f220 a33e 3703 433d 94b9 ebbe
00000160: 8340 8cbd 0320 913e 1563 ee3e 234c 8cbe
00000170: 71fc 8cbe 4324 25be 7348 ac3c fb1e 963d
00000180: afb6 babb 0bbc 4e3e 3054 a2bd ca47 eb3a
00000190: 04d8 103d e1cc 5f3e 33b5 e83e aa8f 42bf
000001a0: 3422 b6be 3f0d 02bf eed3 dabe a22b acbe
000001b0: 783b 87be 985f 0ebe 218f 26be 8be2 9a3e
000001c0: 3562 c4be ac70 883e eb0c 47be 9a7e b33e
000001d0: dff5 0a3d 1f27 053e a909 6fbe 0204 a23e
000001e0: 511e 183e db20 3bbe 480e 6dbe 6d44 153e
000001f0: f3f1 403e 97ad 663c d346 28bf 483c 28be
00000200: 6f8c 87bd 20d3 3abe d6fd 1d3d ac4f 0f3d
00000210: 2d30 d63e 4175 fa3c cf71 913e 440b 30bc
00000220: c960 37be 5a92 ac3c c473 efbd 1945 cf3e
00000230: 8f76 29be 3f88 4a3e 839f 7fbe e0bc 963d
00000240: 2b26 77be 455f 22be da4c 683e 9065 f6bd
00000250: 0176 093e 0b1a 8f3e fac8 b43e f51b 4c3e
00000260: 78c3 163e 056d 933d 2367 7d3d ddeb 95be
00000270: 5484 14be 2b2a 79be 9c1e 6db8 a76f 9cbe
00000280: 3abe 363e a17f 2ebe 8160 3c3d 887f a4bc
00000290: b468 89bd dc36 0dbe ad7a c8bd a835 773b
000002a0: e709 a2be 53e1 2fbe 0ddf 20be 409e 3cbe
000002b0: 7cb3 fe3d 0af9 4f3d d12e 40bd fb87 8f3e
000002c0: 2309 50be 0ad4 6f3d c9cb 3a3d 378d 61bc
000002d0: 28d3 183e 2dd3 8cbd 6da8 2b3d d195 16be
000002e0: d677 1dbe 39ff 59be 7d80 823b 1c4f 58be
000002f0: 3701 473e 8810 693e 2e38 a4be b0c0 dbbe
00000300: 81bf e0be 7189 aa3c bd28 0ebf 58d3 b7be
00000310: e55f c4bd 43e9 8dbd cd0b 3ebe 6213 263e
00000320: c7c5 943e d3be 3abd 52df 583d 35bf 313e
00000330: 820b 023e c90e 27be d3ed 94be 60e4 5dbe
00000340: bd54 a53d 8dc9 8bbd 4bad 5ebe 544e 613e
00000350: f402 a6be cb8c 913e c423 5d3d 080a a6be
00000360: 2265 763e 15f4 5cbe 277a f43d b708 16be
00000370: 573c bc3d 4989 913e fe00 bc3e a127 e53e
00000380: 6559 423e 19f8 53ba 3eae 783d 0e84 353e
00000390: 4577 d33e de3d 663f 4b2f aebe 4dd0 1fbf
000003a0: 61b5 4ebf 6332 4fbe d58d c0be 761b 143f
000003b0: 2be9 1dbe 3a6c 553c f657 59bd 5027 d0bd
000003c0: 1f6e febc d9fd a4be 7bc5 f73d 5ef2 12be
000003d0: 355f 3cbd 0590 d0be cf4d 163f 20a2 3a3e
000003e0: ab0c c9be 8468 e53c 43d1 563e a264 9cbb
000003f0: 5f6c df3e e2ac 62be cf41 873d 5feb b53d

ode_block.odefunc.model.0.bias f4 [100]
0.31681645 -0.1202357 -0.2353933 0.0660397 -0.25623906 -0.13966586 0.16437224 -0.060087796
0.3298439 0.18053971 0.055224735 0.17704718 -0.16101666 -0.024251113 0.13553536 0.17883575
-0.13351238 0.0020054788 -0.016838295 0.13325383 0.32784668 0.46154073 0.20848073 -0.02631935
0.32654437 0.14641021 -0.44710496 -0.07527927 0.007519682 0.09416989 0.23837015 -0.0054188212
0.22369446 -0.4107703 0.2796133 0.17563748 0.13283761 0.29487535 0.017046584 0.25005913
-0.19738428 -0.10002308 0.073824294 -0.4153613 0.11565359 -0.14725445 -0.28677908 -0.04917384
0.23530768 -0.22770673 -0.12338901 0.34453848 -0.284998 -0.31569907 -0.3882341 -0.35962713
0.0028482396 -0.099311665 -0.4325374 -0.28754154 0.3317553 -0.15276371 -0.07502461 0.1849318
0.100848414 0.023994442 0.21979265 -0.36568317 0.028366465 -0.056508124 -0.15713155 0.38136756
0.29549202 0.014790069 0.12583351 -0.12922692 -0.19767362 0.07066149 -0.06630146 0.08357022
-0.08841067 0.14387158 -0.009805295 0.013801701 0.11858151 0.36301783 -0.084642105 0.32145056
-0.20208474 0.2859636 -0.2743308 0.1114921 -0.38979378 -0.053039327 -0.0014065361 0.025887277
-0.029690485 0.1611198 0.06242682 0.11285088
00000000: c435 a23e 223e f6bd f10a 71be d23f 873d
00000010: c431 83be 9104 0fbe 3251 283e 9f1e 76bd
00000020: 4de1 a83e 67df 383e 5533 623d db4b 353e
00000030: 8de1 24be 45aa c6bc c8c9 0a3e b820 373e
00000040: 78b7 08be 5a6e 033b 77f0 89bc b173 083e
00000050: 85db a73e 114f ec3e f97b 553e ad9b d7bc
00000060: d330 a73e 8fec 153e f1ea e4be 052c 9abd
00000070: aa67 f63b 25dc c03d 4e17 743e 5e90 b1bb
00000080: 2910 653e 7c50 d2be 7929 8f3e 50da 333e
00000090: 9506 083e e7f9 963e 47a5 8b3c c007 803e
000000a0: 1b1f 4abe e7d8 ccbd 3131 973d 3caa d4be
000000b0: cadb ec3d dfc9 16be b5d4 92be 826a 49bd
000000c0: 7ff4 703e f42b 69be 61b3 fcbd 5967 b03e
000000d0: 42eb 91be 4fa3 a1be 9fc6 c6be 0c21 b8be
000000e0: 88a9 3a3b ea63 cbbd 8b75 ddbe a538 93be
000000f0: d5db a93e 176e 1cbe 81a6 99bd c35e 3d3e
00000100: 9d89 ce3d fe8f c43c 5311 613e d33a bbbe
00000110: ca60 e83c 1075 67bd 18e7 20be 9c42 c33e
00000120: bb4a 973e 0c52 723c 80da 003e 1054 04be
00000130: f46a 4abe f9b6 903d 0fc9 87bd dd26 ab3d
00000140: a710 b5bd 1253 133e 63a6 20bc 8820 623c
00000150: ddda f23d 79dd b93e d758 adbd 2b95 a43e
00000160: 4def 4ebe d269 923e 1675 8cbe f855 e43d
00000170: 0d93 c7be c43f 59bd 855b b8ba 8e11 d43c
00000180: 7639 f3bc 97fc 243e 44b3 7f3d 5d1e e73d

ode_block.odefunc.model.2.weight f4 [100, 100]
-0.006081825 0.03493165 -0.044072095 0.04346766 -0.12826449 -0.14795369 -0.11122329 0.030749924
-0.07728994 0.02286956 -0.022512494 -0.06010824 -0.111169085 -0.09328685 -0.041113053 0.024625028
0.009190279 0.020136032 -0.007862012 -0.09080275 -0.016013663 -0.118926436 -0.07100902 -0.06688229
-0.016256133 -0.066937886 0.024172662 -0.023080766 -0.032758165 -0.014221636 -0.135881 -0.124153994
-0.09815301 0.014064577 0.00714887 -0.0869742 -0.13271767 0.013297437 -0.15163462 -0.11242404
0.036499407 -0.010030524 -0.11985377 0.05274278 -0.12500645 -0.016899997 -0.089181826 0.04405687
0.0394368 -0.14876342 -0.14599736 -0.053423584 0.02353746 -0.06770696 -0.04446801 -0.006801864
-0.062915176 0.003766904 -0.017964939 -0.02499053 -0.09098394 -0.06570108 -0.004816452 -0.034398753
-0.10833022 -0.13447998 -0.14294378 0.046773676 0.10714423 -0.11589274 -0.06994667 -0.08172683
-0.13642181 -0.005177528 -0.0790946 -0.12055567 -0.025966175 -0.04022616 -0.013194008 0.010757618
-0.13977984 -0.15217161 -0.045979913 -0.0013386592 -0.10813715 -0.15269594 -0.024440104 -0.011378176
-0.11592728 0.0403004 0.00787748 0.026884602 0.071707085 -0.12558095 -0.04632418 -0.13325201
-0.028414043 -0.10862333 -0.085513845 -0.116827436 -0.069084436 0.029435985 -0.09097805 -0.14368609
-0.15451334 0.026848204 -0.14219183 -0.0058374363 -0.14565584 -0.035298053 -0.014153583 -0.13519226
-0.14215128 -0.10236354 -0.14148507 -0.15174967 -0.07799626 0.015626606 -0.060697727 -0.070199706
-0.013510747 -0.10279129 -0.15257576 0.022202576 -0.07722351 -0.04980956 -0.1395202 -0.1054318
0.123088896 -0.11157803 -0.14695363 -0.038282223 -0.09587677 -0.13601218 0.018737378 -0.0014869173
-0.088621885 0.022631679 -0.15503083 -0.052604225 -0.109935604 -0.08680088 0.037517842 0.030638872
0.024891045 0.020512061 0.028270623 -0.048584342 -0.14256169 0.013495834 -0.045868803 0.011686354
-0.064096265 -0.09620811 0.026544437 0.021873442 -0.08475873 -0.0030213867 -0.1178696 -0.09666875
-0.049745698 0.030951941 -0.010129613 -0.09131281 0.015742322 -0.13674076 -0.028344885 4.7444944e-05
-0.022580663 -0.13495265 -0.028149879 -0.052506912 0.01878351 -0.076489806 -0.07726163 -0.09698663
0.024564615 -0.017035404 0.029728262 -0.09789089 -0.089361615 0.0018442764 -0.12164323 -0.0021641147
-0.06489442 -0.004292581 -0.0884323 -0.14142863 0.009079916 0.00797201 0.031226873 -0.11596436
0.038373742 0.0069928044 -0.099426635 -0.015257757 -0.08264801 -0.0806396 -0.029034264 -0.09481043
-0.019295162 -0.09804994 0.043190636 -0.02935781 -0.04510529 -0.005937078 -0.11515828 -0.08963598
-0.08830999 -0.12806764 0.0037229655 -0.0073037315 -0.02391353 -0.10831222 -0.12066466 -0.01982548
-0.02195992 -0.12749656 -0.095649436 -0.1021025 -0.1430012 -0.029457727 -0.015488706 -0.12888262
0.03298687 0.029103328 -0.14262545 -0.015676454 -0.0842399 -0.14795111 0.021809556 -0.14103808
-0.023497276 -0.08763874 -0.027503185 -0.14345469 -0.10004459 -0.12867285 -0.15557015 -0.026321523
-0.05361607 -0.15231821 -0.0871092 -0.09706779 -0.08532881 -0.15373938 -0.133478 -0.1476431
-0.074087664 -0.043188505 -0.006696798 0.034561977 -0.03700489 -0.050355606 -0.13178484 -0.032045998
00000000: 0c4a c7bb 7d14 0f3d f184 34bd 250b 323d
00000010: c457 03be 2c81 17be 09c9 e3bd 44e7 fb3c
00000020: 304a 9ebd f258 bb3c 1f6c b8bc 0f34 76bd
00000030: 9eac e3bd 2d0d bfbd 2966 28bd 6dba c93c
00000040: d392 163c 52f4 a43c abcf 00bc cbf6 b9bd
00000050: 162f 83bc b48f f3bd 2d6d 91bd 95f9 88bd
00000060: 952b 85bc bb16 89bd bf05 c63c e013 bdbc
00000070: 6d2d 06bd dd01 69bc 6424 0bbe 7344 febd
00000080: 7204 c9bd 1d6f 663c 1141 ea3b 881f b2bd
00000090: 24e7 07be 7edd 593c 1b46 1bbe 933e e6bd
000000a0: 6780 153d 1157 24bc e575 f5bd d008 583d
000000b0: b101 00be dd71 8abc f6a4 b6bd fa74 343d
000000c0: 7b88 213d 7055 18be 5580 15be b0d2 5abd
000000d0: a2d1 c03c f2a9 8abd 1724 36bd 2ce2 debb
000000e0: acd9 80bd 29de 763b 352b 93bc f1b8 ccbc
000000f0: ca55 babd 4a8e 86bd 54d3 9dbb b5e5 0cbd
00000100: 3cdc ddbd 1fb5 09be db5f 12be c195 3f3d
00000110: 6f6e db3d 2c59 edbd 3340 8fbd 6560 a7bd
00000120: 29b2 0bbe 41a8 a9bb 5afc a1bd e4e5 f6bd
00000130: 04b7 d4bc 30c4 24bd ae2b 58bc b840 303c
00000140: 7222 0fbe e0d2 1bbe 6f55 3cbd f375 afba
00000150: 0377 ddbd 535c 1cbe 9d36 c8bc 876b 3abc
00000160: 486b edbd 0812 253d 8c10 013c 193d dc3c
00000170: 2adb 923d 4b98 00be 6cbe 3dbd 3773 08be
00000180: 91c4 e8bc e975 debd e221 afbd 3943 efbd
00000190: 247c 8dbd bc23 f13c b352 babd 7222 13be
000001a0: bf38 1ebe c4f0 db3c bc9a 11be f747 bfbb
000001b0: ce26 15be b194 10bd 6ee4 67bc d76f 0abe
000001c0: 1b90 11be faa3 d1bd 76e1 10be 4464 1bbe
000001d0: 81bc 9fbd 5e03 803c 2e9e 78bd ddc4 8fbd
000001e0: 2e5c 5dbc 3d84 d2bd d23c 1cbe 2de2 b53c
000001f0: 5c27 9ebd 1c05 4cbd 62de 0ebe a1ec d7bd
00000200: 0816 fc3d 0683 e4bd 037b 16be d2cd 1cbd
00000210: 0a5b c4bd c746 0bbe 217f 993c aae4 c2ba
00000220: 647f b5bd 1266 b93c 67c0 1ebe 8777 57bd
00000230: eb25 e1bd a9c4 b1bd 4fac 193d 5ffe fa3c
00000240: 4ee8 cb3c e908 a83c cb97 e73c 6000 47bd
00000250: b1fb 11be a11d 5d3c ede0 3bbd 1f78 3f3c
00000260: e744 83bd c208 c5bd b873 d93c ef2f b33c
00000270: fc95 adbd 7502 46bb 9e65 f1bd 44fa c5bd
00000280: 25c2 4bbd ed8e fd3c adf6 25bc 3602 bbbd
00000290: 0bf6 803c c505 0cbe 8833 e8bc 9fff 4638
000002a0: 15fb b8bc 0731 0abe 939a e6bc 7d11 57bd
000002b0: e0df 993c b0a6 9cbd 583b 9ebd eda0 c6bd
000002c0: bb3b c93c d58d 8bbc af88 f33c 057b c8bd
000002d0: 3903 b7bd a6bb f13a 1620 f9bd d2d3 0dbb
000002e0: 5ee7 84bd c8a8 8cbb fe1b b5bd abd2 10be
000002f0: eec3 143c 099d 023c 80cf ff3c b97e edbd
00000300: c92d 1d3d e523 e53b 31a0 cbbd acfb 79bc
00000310: 5c43 a9bd 6026 a5bd 44d9 edbc f92b c2bd
00000320: e310 9ebc 68ce c8bd aae8 303d ca7f f0bc
00000330: 53c0 38bd d28b c2bb 1bd8 ebbd 1293 b7bd
00000340: dedb b4bd 2a24 03be fffc 733b 2454 efbb
00000350: 4fe6 c3bc ccd2 ddbd 091f f7bd 0c69 a2bc
00000360: 4ae5 b3bc 758e 02be dae3 c3bd 1e1b d1bd
00000370: e86e 12be 5551 f1bc 57c4 7dbc cef9 03be
00000380: 3d1d 073d 1a6a ee3c 680c 12be e86b 80bc
00000390: f885 acbd 7f80 17be f4a9 b23c 496c 10be
000003a0: 5c7d c0bc f17b b3bd 5c4e e1bc c9e5 12be
000003b0: 2ee4 ccbd d1c2 03be c84d 1fbe 3ca0 d7bc
000003c0: 869c 5bbd 4ef9 1bbe 4f66 b2bd 7acb c6bd
000003d0: dfc0 aebd db6d 1dbe 75ae 08be c12f 17be
000003e0: 46bb 97bd 6ee6 30bd d070 dbbb dc90 0d3d
000003f0: 7192 17bd ae41 4ebd 9bf2 06be aa42 03bd

ode_block.odefunc.model.2.bias f4 [100]
-0.007435328 -0.11496096 -0.12555788 -0.06229063 0.037678227 -0.019444788 0.0084077995 0.0592484
0.08615215 0.0036632938 -0.11807902 0.03039167 -0.016384162 -0.08984611 -0.0027737047 -0.048816152
-0.108829744 -0.061504953 -0.002324019 -0.059090376 -0.097822785 -0.14445037 0.033628225 0.0076373396
0.041646533 -0.020039532 0.017286923 -0.07497123 0.006872426 -0.029402686 -0.07173904 0.012550046
0.089760244 -0.15754734 -0.054579 -0.0962755 0.0951387 0.051060554 -0.093411036 -0.09548077
0.011143103 0.058537073 -0.13375312 -0.06305148 0.062119488 0.11162475 -0.048922546 0.010115254
-0.07968335 -0.008328542 -0.1270051 -0.03611069 0.09277913 -0.07043599 -0.14893395 0.01077509
-0.118842036 -0.147807 0.10728757 -0.09223322 0.00426817 0.018539464 -0.011964558 0.12454492
-0.029505959 -0.025683366 -0.07950909 -0.004915204 -0.07572449 0.035882924 0.0024573067 0.079176985
-0.12499775 -0.04141272 -0.08614569 -0.011036746 -0.006594094 -0.09953378 0.043080054 0.03101069
-0.097956054 0.10849589 -0.102109194 0.07862882 -0.039033946 -0.105522856 -0.0030099787 0.025916733
0.08656038 -0.12864554 0.009393279 -0.0027212931 -0.07825873 0.07370126 0.03555873 -0.13960075
0.021183247 0.047848582 0.005588275 0.015130746
00000000: 0da4 f3bb a770 ebbd 3f92 00be 7624 7fbd
00000010: 7c54 1a3d ad4a 9fbc dec0 093c 73ae 723d
00000020: 8a70 b03d df13 703b 6ad3 f1bd f4f7 f83c
00000030: 1438 86bc 3d01 b8bd 0bc7 35bb 72f3 47bd
00000040: 21e2 debd 9eec 7bbd 924e 18bb c008 72bd
00000050: 5057 c8bd ccea 13be c0bd 093d a642 fa3b
00000060: 8e95 2a3d f229 a4bc 4e9d 8d3c 848a 99bd
00000070: 1632 e13b e7dd f0bc ebeb 92bd b59e 4d3c
00000080: 38d4 b73d 1754 21be 3b8e 5fbd 172c c5bd
00000090: 14d8 c23d df24 513d 494e bfbd 6c8b c3bd
000000a0: 9091 363c 92c4 6f3d 94f6 08be 2221 81bd
000000b0: 0171 7e3d 849b e43d 0263 48bd 73ba 253c
000000c0: 0631 a3bd 7074 08bc a00d 02be cee8 13bd
000000d0: fc02 be3d bf40 90bd 2482 18be 018a 303c
000000e0: 7463 f3bd b85a 17be 96b9 db3d c5e4 bcbd
000000f0: 01dc 8b3b 13e0 973c fe06 44bc 6811 ff3d
00000100: 7bb6 f1bc ec65 d2bc a9d5 a2bd b80f a1bb
00000110: 7115 9bbd f9f9 123d c40a 213b 8b27 a23d
00000120: d2fe ffbd 62a0 29bd 276d b0bd 78d3 34bc
00000130: 4513 d8bb 5ed8 cbbd b674 303d 210a fe3c
00000140: 2f9d c8bd 1833 de3d a01e d1bd 2608 a13d
00000150: 0fe2 1fbd 5e1c d8bd 1043 45bb 544f d43c
00000160: 9246 b13d a8bb 03be 45e6 193c b957 32bb
00000170: 1d46 a0bd b0f0 963d 08a6 113d 80f3 0ebe
00000180: 7d88 ad3c e0fc 433d d91d b73b f3e6 773c

ode_block.odefunc.model.4.weight f4 [6, 100]
0.021914776 -0.009465689 0.027801435 -0.018507943 -0.024995798 -0.020061817 0.033888437 -0.009634742
-0.0732347 -0.021911973 0.04862667 -0.054246724 -0.032951295 -0.050843522 0.027711438 0.040612303
0.040043417 -0.04954818 -0.012819022 0.021785423 -0.035607327 -0.034328017 -0.04636477 0.019597521
-0.017468108 -0.049803585 -0.08211637 0.03542179 0.01749509 0.032029748 -0.11096346 0.008902561
-0.060847465 0.031000087 0.0044792597 -0.04035325 0.0033115596 0.051995188 0.14955224 -0.026614636
-0.05564807 -0.12034627 -0.0044439025 -0.034372695 -0.006296439 0.01775535 -0.053773243 0.015654417
-0.022476438 -0.07276977 -0.024252448 0.049363475 -0.11982005 -0.016788276 -0.049042463 0.03590969
0.024681875 0.04487714 -0.10086979 0.007423914 -0.028636876 0.010193453 -0.02800385 -0.004321091
-0.121311165 0.028534083 -0.0919067 0.023031138 -0.16456337 0.009424237 -0.0084842 -0.04883799
0.0049381787 0.054081652 0.022560725 0.032832973 -0.0078442395 -0.022826592 0.003650789 -0.0153040355
0.036894474 -0.032773916 0.023320979 -0.038502283 -0.01709895 0.008494691 -0.024222031 0.0076872404
0.073834345 0.02634752 -0.057837203 0.0381579 -0.14777486 -0.0761881 -0.10532721 -0.0308112
-0.0289652 0.034155063 0.045620166 -0.08513773 -0.022430703 0.007762395 -0.1148328 -0.09517978
0.0064222896 -0.05974379 -0.032499675 -0.08336091 -0.08207411 -0.029324956 0.04335643 -0.0050212303
0.05867289 0.029273193 -0.08222324 -0.012057848 0.028990548 -0.050763443 -0.004616796 0.019596078
-0.03499209 -0.004309463 -0.081239015 -0.08043188 0.047193646 -0.034532454 0.03908381 -0.015134889
-0.0020071154 -0.041984934 -0.08669349 0.002928657 -0.060750708 -0.11874298 -0.0531562 -0.07626459
0.029381229 -0.029605277 -0.5351815 0.10849778 0.06438794 -0.039098594 -0.14478905 0.03974374
0.0686544 0.056010738 -0.008767488 -0.0015708604 0.013894852 0.0032755078 -0.09505356 0.0399303
-0.06562115 -0.1269079 0.009489542 -0.070090115 -0.07201166 0.009033547 0.07475108 -0.09512355
0.05146473 -0.012928761 0.010446365 0.0074388604 -0.008176397 -0.05278052 0.042328916 -0.037197806
-0.10252557 -0.0027730705 -0.006287013 0.04387575 -0.120346576 -0.046452664 0.036311522 -0.073181175
0.050176553 0.038695116 0.043136112 -0.1265461 -0.059309214 0.035947964 0.051715054 -0.07980695
0.016226862 0.09112265 0.048020087 -0.11841685 0.4609349 0.084077336 -0.017629685 0.044675108
-0.0723813 0.05711582 -0.087701276 -0.09720766 0.020359963 0.014320483 -0.00989693 0.002834384
0.05380377 -0.0022265608 -0.15978245 -0.03221902 0.014002305 -0.11338076 -0.039596613 -0.1690371
-0.03895809 -0.06991894 0.14593978 0.003414341 0.005480106 -0.07269536 0.0033428818 -0.16072658
0.10341772 0.19408284 -0.11560899 -0.12270907 -0.096122906 -0.034833368 0.045194462 -0.13632306
-0.043395832 0.04578477 -0.15853955 -0.018763348 -0.03166414 -0.07701778 0.079992585 -0.089334756
-0.0951007 -0.0051300563 -0.016700478 0.00101105 -0.14895125 -0.041084252 0.4634389 -0.015478801
-0.10864341 -0.13137324 -0.017793544 -0.12816343 0.13756959 -0.020637004 -0.1096901 0.068268985
-0.10814379 0.39528242 -0.1048652 -0.11471571 -0.101906516 0.1237906 0.14454293 -0.011115222
00000000: 9e86 b33c fa15 1bbc d6bf e33c f89d 97bc
00000010: fdc3 ccbc ae58 a4bc 9ace 0a3d 09db 1dbc
00000020: 13fc 95bd bd80 b3bc c22c 473d d031 5ebd
00000030: f0f7 06bd 4c41 50bd 1903 e33c 1659 263d
00000040: 9104 243d 08f3 4abd e006 52bc 5877 b23c
00000050: fdd8 11bd 899b 0cbd fce8 3dbd fb8a a03c
00000060: 4719 8fbc d8fe 4bbd a12c a8bd 7016 113d
00000070: dd51 8f3c a031 033d cf40 e3bd 0cdc 113c
00000080: 313b 79bd e5f3 fd3c c1c6 923b 7349 25bd
00000090: c006 593b e8f8 543d 3924 193e f006 dabc
000000a0: 3bef 63bd 1b78 f6bd 289e 91bb 62ca 0cbd
000000b0: 5c52 cebb ab73 913c 5541 5cbd b13d 803c
000000c0: 8220 b8bc 5108 95bd 12ad c6bc 5b31 4a3d
000000d0: 3764 f5bd 9187 89bc c0e0 48bd 0a16 133d
000000e0: a531 ca3c 18d1 373d d294 cebd 4e44 f33b
000000f0: e297 eabc 7102 273c 5468 e5bc f097 8dbb
00000100: fd71 f8bd 4fc0 e93c 9439 bcbd ccab bc3c
00000110: 4d83 28be 1d68 1a3c 5001 0bbc 580a 48bd
00000120: 72d0 a13b b984 5d3d 45d1 b83c de7b 063d
00000130: 2085 00bc d5fe babc 1342 6f3b c7bd 7abc
00000140: a91e 173d f13d 06bd a30b bf3c 92b4 1dbd
00000150: 1913 8cbc 512d 0b3c 486d c6bc 3fe5 fb3b
00000160: 7636 973d c1d6 d73c b4e6 6cbd 754b 1c3d
00000170: 4b52 17be 8208 9cbd cbb5 d7bd c567 fcbc
00000180: 6d48 edbc 2ee6 0b3d 36dc 3a3d b15c aebd
00000190: 98c0 b7bc b05b fe3b 762d ebbd 9eed c2bd
000001a0: 1272 d23b e8b5 74bd 611e 05bd 20b9 aabd
000001b0: 7916 a8bd e43a f0bc 8396 313d 2289 a4bb
000001c0: fc52 703d 56ce ef3c a864 a8bd 488e 45bc
000001d0: 967d ed3c 54ed 4fbd 7e48 97bb f487 a03c
000001e0: de53 0fbd 6536 8dbb a460 a6bd 78b9 a4bd
000001f0: 204e 413d e771 0dbd 5816 203d 53f8 77bc
00000200: cf89 03bb 65f8 2bbd 5b8c b1bd b6ee 3f3b
00000210: bcd5 78bd 852f f3bd 51ba 59bd 9c30 9cbd
00000220: e7b0 f03c c486 f2bc a801 09bf 1634 de3d
00000230: d3dd 833d d925 20bd 9543 14be 55ca 223d
00000240: ae9a 8c3d 846b 653d 83a5 0fbc 54e5 cdba
00000250: 3ca7 633c e7a9 563b 71ab c2bd f48d 233d
00000260: 6264 86bd 25f4 01be 067a 1b3c 688b 8fbd
00000270: d97a 93bd 7101 143c 1817 993d 23d0 c2bd
00000280: aecc 523d 27d3 53bc 3b27 2b3c afc1 f33b
00000290: 4bf6 05bc 6330 58bd 1661 2d3d ba5c 18bd
000002a0: edf8 d1bd 67bc 35bb 4a03 cebb 0fb7 333d
000002b0: 4478 f6bd 2645 3ebd 64bb 143d 03e0 95bd
000002c0: ee85 4d3d c57e 1e3d 7eaf 303d 4d95 01be
000002d0: 38ee 72bd 2c3e 133d 2ad3 533d d471 a3bd
000002e0: 32ee 843c 839e ba3d b6b0 443d 8984 f2bd
000002f0: a9ff eb3e bd30 ac3d 216c 90bc 3ffd 363d
00000300: a63c 94bd 47f2 693d ba9c b3bd cf14 c7bd
00000310: f0c9 a63c 76a0 6a3c bc26 22bc 13c1 393b
00000320: 5861 5c3d 7eeb 11bb 039e 23be 17f8 03bd
00000330: ed69 653c 2c34 e8bd 0f30 22bd 1018 2dbe
00000340: 8592 1fbd a931 8fbd 3d71 153e 23c3 5f3b
00000350: 7692 b33b 4ee1 94bd 4014 5b3b 8295 24be
00000360: abcc d33d a7bd 463e 68c4 ecbd e54e fbbd
00000370: 16dc c4bd 6fad 0ebd d41d 393d 4698 0bbe
00000380: d4bf 31bd d088 3b3d 3158 22be 98b5 99bc
00000390: 42b2 01bd 7fbb 9dbd 27d3 a33d 24f5 b6bd
000003a0: 28c4 c2bd 081a a8bb 71cf 88bc 3585 843a
000003b0: ad86 18be f647 28bd dd47 ed3e cc9a 7dbc
000003c0: 7080 debd b586 06be c4c3 91bc 463d 03be
000003d0: 0bdf 0c3e ef0e a9bc 34a5 e0bd 9cd0 8b3d
000003e0: 7e7a ddbd 7562 ca3e 91c3 d6bd 12f0 eabd
000003f0: 5db4 d0bd ed85 fd3d 1003 143e 9f1c 36bc

ode_block.odefunc.model.4.bias f4 [6]
0.053265378 0.08870276 -0.122643664 -0.1478475 -0.01101886 -0.020185005
00000000: cc2c 5a3d cba9 b53d 9a2c fbbd 5665 17be
00000010: 7388 34bc 065b a5bc
