models/pushing_absolute_dynamics_model.pt (torch, 46871 bytes, 6 tensors)

linear1.weight f4 [100, 6]
000000 e5 73 d3 3e c5 25 dd bc c1 12 6c 3e 7d 2a ac be
       0.41299358 -0.026995549 0.23054029 -0.33626166
000010 8e e3 7a 3e 5c 32 82 be e8 f9 7b be 4e 69 b2 3e
       0.24500868 -0.25429046 -0.2460705 0.34845966
000020 2c fd db bd 05 c5 d5 be 62 75 84 3e cb bf 8b bb
       -0.10741648 -0.41751876 0.25870806 -0.004264807
000030 60 a8 07 be 2a 8b 1c 3e 86 d6 af be f5 d9 af be
       -0.13247824 0.15287462 -0.34343356 -0.34345976
000040 7e d2 a4 be 32 75 4e 3e 4a 33 b6 bc 0a 13 07 3d
       -0.32191843 0.20161894 -0.022241253 0.03297714
000050 fd d7 ff 3c 63 db 07 3d ba f6 5e bd 63 d6 5e 3e
       0.03123092 0.033168208 -0.054434516 0.2176147
000060 8f 28 c1 bd 00 06 be 3c 8f 9b b9 3e ed 51 92 be
       -0.09431564 0.02319622 0.36251494 -0.2857813
000070 9d 4a 59 bd f7 ac a4 3d 66 b8 9d be e3 9c 22 3e
       -0.053049672 0.08040803 -0.30804747 0.1588016
000080 ab fd a4 3e 73 ee a1 3e ca 5c 66 3d 13 d2 a5 3e
       0.32224783 0.31627235 0.056240834 0.32386836
000090 9e cd 69 be 2d 1f 1c 3e a7 05 5b be 36 87 2c bd
       -0.22832343 0.15246268 -0.21388875 -0.042121135
0000a0 f2 fb b4 3d 4b 7d e9 3d b1 41 ea bd 52 c1 92 3d
       0.08837117 0.11400851 -0.11438311 0.07165779
0000b0 65 14 08 3d 4b e3 bd 3e ce a3 ce 3e 08 f0 41 3d
       0.033222575 0.37087473 0.40359348 0.047348052
0000c0 ba 4d 9c be 67 59 86 be 55 17 39 3e 07 37 35 be
       -0.3052805 -0.26240084 0.18075307 -0.17696773
0000d0 69 c7 26 3e f1 3b 16 be ab e0 11 3e 9c 01 57 3c
       0.16287006 -0.14671303 0.1424586 0.013122942
0000e0 13 31 8c bd 0c 08 c3 3e af dd 05 be 18 b9 01 bf
       -0.06845298 0.38092077 -0.13072847 -0.50673056
0000f0 9b dd 74 3e 78 e5 00 bf f1 c7 55 3e 62 c6 70 be
       0.23912661 -0.5035014 0.20877053 -0.23513177
000100 f5 d0 b4 bd c7 9c 9d be e9 5b 62 be 7d 2c b2 3e
       -0.08828918 -0.30783674 -0.22105373 0.34799567
000110 29 47 82 be 18 5c 82 3e d3 73 e9 bd 85 40 1a 3e
       -0.25444916 0.25460887 -0.11399045 0.15063675
000120 a9 b8 89 3e db 22 0e 3e fb 65 53 3e d6 29 af 3e
       0.26898697 0.13880484 0.20644371 0.34211606
000130 0e bb 8e be fb 07 fe 3d 93 8e 57 3e ff 2b 2a bb
       -0.27877086 0.12403866 0.21050481 -0.0025966165
000140 f8 15 bc 3e 50 2c 5d be 74 85 50 be aa d4 60 be
       0.3673551 -0.21598935 -0.20363408 -0.21956125
000150 5c 53 17 be 2e 63 d2 be 4a 9c 43 3e c1 3f ce 3e
       -0.14777893 -0.41091293 0.19102588 0.40283015
000160 eb 6d a6 be 67 c8 8e 3e ce 0d b0 bd 63 a8 65 3e
       -0.32505736 0.2788727 -0.08596383 0.22427516
000170 7c 2a 08 3e 0e ed b3 be f6 53 f3 bd de 89 63 be
       0.13297457 -0.35141796 -0.11881249 -0.22220561
000180 aa 9e 34 3e 7f c2 c5 be 06 03 b3 be 9b 02 b6 be
       0.1763865 -0.3862495 -0.34963244 -0.35548863
000190 75 57 99 3e c7 da af 3d 83 4b 25 bd cc 17 a7 3e
       0.29949537 0.0858665 -0.040355217 0.32635343
0001a0 7b 2b af 3d 01 dd 2e 3e 1c e0 50 3d 34 8f 2c 3d
       0.08553215 0.17076494 0.050994977 0.042128757
0001b0 1f e7 a5 be 89 67 2e 3e 4a 10 11 be b1 08 a0 3e
       -0.32402894 0.17031683 -0.1416637 0.3125663
0001c0 d6 16 b7 bd 51 1e ca 3e ce 75 0a be 9c 50 e4 3d
       -0.089399025 0.39476255 -0.13521501 0.111481875
0001d0 7e 13 c3 3e 76 0c 8c be 69 74 7b be e1 91 bb be
       0.3810081 -0.27353257 -0.24556126 -0.36634734
0001e0 60 c2 ce bc 76 10 e2 bd d7 55 d9 38 aa f2 79 be
       -0.02523917 -0.11038296 0.00010363355 -0.24408975
0001f0 d4 e3 1c bc 58 d0 ba 3e 7a 21 54 be 48 5c b9 3e
       -0.009575803 0.3648708 -0.20715895 0.36203218
000200 ba 8f d7 3c c9 cc c6 be 26 b8 03 3e cc 92 bd be
       0.026313651 -0.38828114 0.12863216 -0.3702606
000210 8f f8 a8 be 22 8f 76 3e b1 f3 5f bd 9c e0 87 3d
       -0.33002135 0.24078038 -0.05467576 0.06634638
000220 6a 28 b7 be 41 3b 52 bd 61 7e da 3e ec 48 48 be
       -0.3577302 -0.05132604 0.42674544 -0.19559067
000230 72 7b 94 bc e7 5c 16 be fb e1 71 be ec 0c 12 3e
       -0.01812527 -0.14683877 -0.23621361 0.14262742
000240 04 8e 86 3e 2a 7f 9f be 80 c6 00 bf 88 2f 6e 3e
       0.26280224 -0.31151706 -0.50302887 0.23260319
000250 b6 3a c0 3d 22 6a ab 3d e9 c1 1a 3e e3 0b c9 be
       0.09386198 0.083698526 0.15113033 -0.3926688
000260 d5 75 d3 be 0d 46 ca 3e 9b bf 41 be af c5 be 3e
       -0.41300836 0.3950657 -0.18920748 0.37260196
000270 ed 4f 51 be 4a 66 07 3e 8b 4b 68 3e 48 3d a5 bd
       -0.20440646 0.13222614 0.22685067 -0.08068329
000280 c8 8d 80 3e e3 ad 3e 3e 2a 27 4d 3e 16 5f f3 3e
       0.2510817 0.1862102 0.20034471 0.47533482
000290 9b 62 27 be e8 34 95 3d b5 9d 88 be 95 a1 14 bd
       -0.16346209 0.07285482 -0.2668282 -0.03628691
0002a0 ef 0e 82 3e be d9 fc be f9 4f 41 be ad 69 c9 3e
       0.25402018 -0.49384874 -0.18878163 0.39338437
0002b0 61 30 0d 3e f7 5e 1b 3e 29 d8 c3 be 9d 13 c8 be
       0.13787986 0.15172945 -0.38250855 -0.39077464
0002c0 ef 41 9e 3e 28 4e 9d be 48 e9 c7 be 60 46 79 3e
       0.30909678 -0.3072369 -0.39045167 0.24343252
0002d0 43 ff 76 be c5 5c f6 3c 52 55 de 3d c1 5c f2 3e
       -0.24120812 0.030073533 0.10856117 0.4733639
0002e0 4c 83 b2 3e a9 67 01 be a4 f7 cc 3e 9c 5d df 3e
       0.34865797 -0.126372 0.40032685 0.43626106
0002f0 3e af bf bd 66 61 80 bd b1 2d b6 3b a5 d2 3e 3e
       -0.09359597 -0.06268577 0.005559646 0.18635042
000300 ff d3 24 be e4 0a cb be 3b bf 4f be 35 07 a2 bd
       -0.16096495 -0.39656746 -0.20287792 -0.07911531
000310 b3 42 49 3e 52 6d 4d be bf 28 8f bd 7d 31 1a bf
       0.1965435 -0.20061234 -0.069901936 -0.60231763
000320 02 a6 32 bd 4e e4 c4 be 79 92 23 3e 07 d8 71 3e
       -0.04361535 -0.38455433 0.15973844 0.23617564
000330 ee c9 e3 3c 80 bc ba be 2b 0c 84 3e a9 be 98 3e
       0.027806249 -0.3647194 0.25790533 0.29832962
000340 ec fb 99 be 19 b7 98 3e cb 6e 97 be 9b b8 54 be
       -0.30075014 0.29827192 -0.29576716 -0.20773546
000350 d1 a5 26 bd 63 5a f3 3d 72 48 2e 3e 5a 3e 16 be
       -0.04068548 0.11882474 0.17019823 -0.14672223
000360 9c 67 e1 bd 97 9a c5 3e a4 ca a8 3e 0b c3 b4 bd
       -0.1100609 0.38594505 0.32967103 -0.08826264
000370 8e 69 1e be e9 d5 21 be 7a ec 45 3c 76 3a f4 3d
       -0.15469953 -0.15804256 0.012080306 0.11925213
000380 4f dd 75 be 56 a5 91 3e fd 02 33 be 7d 49 3d 3e
       -0.24010204 0.28446454 -0.17481609 0.18485065
000390 5a 5f 8b 3e 10 0b cc 3e 9a 14 cc be 7e 13 34 bd
       0.27221185 0.3985219 -0.39859468 -0.0439639
0003a0 4b 94 be be a7 00 5e be 3f 46 81 be 91 45 14 3f
       -0.37222514 -0.21679936 -0.25248906 0.5791865
0003b0 97 ce 2f be e9 19 54 be 4a 87 a3 be 5d 44 8c be
       -0.17168652 -0.20713009 -0.31939155 -0.27395907
0003c0 f1 55 e6 3e ef 5b 9b bd ad 61 98 3e 0c c5 9f 3e
       0.44987443 -0.07585894 0.2976202 0.31205022
0003d0 6f e3 3c be 4b 71 1c 3e e9 2d 41 3e 7b d6 e3 bb
       -0.18446134 0.15277593 0.1886517 -0.0069530583
0003e0 07 e9 eb bd c9 ca c5 bd 91 74 ef bd de 46 a9 3e
       -0.11519056 -0.09657819 -0.11692155 0.3306188
0003f0 f6 68 59 3d ce 58 2f bf 33 c2 3b be 5a 00 66 be
       0.053078614 -0.6849488 -0.183358 -0.22461072

linear1.bias f4 [100]
000000 24 46 91 3d eb 76 65 bd 80 1e c8 be 60 90 bb be
       0.070934564 -0.056021612 -0.3908577 -0.36633587
000010 67 ab 4d 3e a1 8d 87 ba 82 86 c3 be cc 83 b1 3e
       0.20084916 -0.0010341891 -0.3818856 0.34670866
000020 4d 10 71 3e d1 9d 08 be 21 ac 2d bc 0e 31 21 bc
       0.23541375 -0.13341452 -0.010600121 -0.009838356
000030 bc 4a 60 be ce 74 07 bd 86 31 42 3e 3b fc 43 be
       -0.21903509 -0.033070378 0.18964204 -0.19139187
000040 93 9b a2 be 38 c0 81 3e 89 86 32 3e 4a af 69 3e
       -0.3175932 0.25341964 0.17434134 0.22820774
000050 40 0d 0f be 42 6a 59 3d d6 16 aa 3e 68 4c 71 3e
       -0.13969898 0.05307985 0.33220547 0.23564303
000060 0b 6e a8 be 47 2f 62 be 68 b1 d4 bd 1d cc 7c bd
       -0.32896456 -0.22088347 -0.103854 -0.061718095
000070 f4 c8 58 3e c8 64 28 be 92 21 5f be b4 5b 9a 3d
       0.21170408 -0.16444695 -0.2179015 0.07537022
000080 19 ea 9d bc 6f ae 9e be 66 6b 20 be 79 9c c3 3e
       -0.019276666 -0.30992457 -0.15665969 0.38205317
000090 c9 97 34 3e b8 ee c1 3e 8e b4 a4 3e 71 fe 99 3e
       0.17636026 0.3787744 0.32169002 0.30076936
0000a0 3d 48 80 3e ac 63 10 3d 50 54 b8 3e 66 07 3d 3e
       0.25055113 0.035251305 0.36001825 0.18459854
0000b0 e5 0b 60 3e 35 44 80 3e ef 80 8f 3e c8 ea a6 be
       0.21879537 0.25052038 0.28028056 -0.32601
0000c0 35 1b f1 3d 11 e9 b4 3e 62 22 40 3e 2f 95 a0 be
       0.117727675 0.35334066 0.18763116 -0.31363818
0000d0 2b 85 97 bc 2e 7e aa bc 50 e5 bf 3e 56 6c 7d be
       -0.018496117 -0.02081212 0.3747964 -0.24748358
0000e0 f5 78 9a bd f3 1b 0b be 7f c5 05 3d cb b9 95 3e
       -0.07542602 -0.1358488 0.03265905 0.2924331
0000f0 cc 64 c6 3e 22 e9 52 be 33 c6 83 bd b3 3e e7 bd
       0.38748777 -0.20596746 -0.06434288 -0.11291256
000100 a3 0e 3b be 8f 72 ae be 1e 3b ad 3e c2 4a d1 bd
       -0.18267302 -0.34071776 0.33834165 -0.10219337
000110 7e 12 80 3e 98 c2 1f be 07 e7 9e 3e 31 a6 95 3d
       0.25014108 -0.15601575 0.31035635 0.07307089
000120 54 ed ca bd e0 9e 84 be 55 e2 70 3e 60 12 c7 bd
       -0.09908548 -0.25902462 0.23523839 -0.09720302
000130 a7 70 83 be e8 61 1d be b9 b5 2f 3e fc e7 b9 be
       -0.25671884 -0.1536938 0.17159165 -0.36309803
000140 a8 04 8a 3e 8b be 7d 3e a7 8f 7d 3e 5a d6 c2 3e
       0.26956677 0.24779718 0.2476183 0.38054162
000150 fb 46 5c 3e 8a 3e 95 3e f5 19 ce 3e 64 f3 b9 3e
       0.21511452 0.29149276 0.4025418 0.36318505
000160 28 23 a5 bd 5d c9 8a 3e dd 07 bb bd b6 70 c2 3d
       -0.08063346 0.27106753 -0.09132359 0.09494154
000170 ea 38 be 3e a6 42 6c 3d 16 c9 a5 be 35 e8 6d 3e
       0.37152797 0.05768075 -0.3237998 0.23233111
000180 a7 2a a1 be 3b 1c 39 be e0 93 94 bd b9 1b 7a 3d
       -0.31477854 -0.18077175 -0.072547674 0.061061595

linear2.weight f4 [100, 100]
000000 39 45 c4 bd 92 26 8d bd 7f 2f 93 bd d5 43 84 bd
       -0.09583516 -0.06892122 -0.071867935 -0.064582504
000010 c5 5f 4f 3c db b3 13 3d b3 a2 22 bd 0f b1 2e 3c
       0.012657111 0.036060195 -0.039705943 0.010662331
000020 8e d3 22 ba 3f 4f c3 bd 03 15 d8 bc c4 eb ce bd
       -0.00062113337 -0.09536599 -0.026377207 -0.101035625
000030 84 69 58 bd e2 09 5e bd 6f 4f 43 3d cb 4f 3d 3d
       -0.052835003 -0.054208644 0.047683176 0.046218675
000040 d3 95 82 3b ff 19 cb bd 0c b5 84 bd 4a ee b1 bc
       0.0039851456 -0.09917068 -0.064798445 -0.02172007
000050 2b eb bc bd ed ab e1 bd ce e7 3e bd c9 35 5e bd
       -0.09224542 -0.1101912 -0.046607785 -0.054250512
000060 24 dc 77 3d 51 f3 9d bd bf c2 9c 3c ae 29 cf bd
       0.060512677 -0.077124245 0.01913583 -0.10115372
000070 89 91 a3 bd 39 a9 b4 3d b6 cb 2b bd 88 5f 60 ba
       -0.07986743 0.08821339 -0.04194232 -0.0008559157
000080 66 2b 9c bd 93 9f b1 bd 4e 1f e5 3c 0f 2c d5 bd
       -0.07625465 -0.086730145 0.027969029 -0.10408794
000090 9d a3 81 3b 85 5c 5d bd 1f e2 7c bd f0 54 1c 3d
       0.003956272 -0.05404331 -0.061739083 0.03816694
0000a0 47 80 a1 3d 61 2f b1 3b 36 dd 0e 3d 2d 4c bc bd
       0.07885795 0.0054072593 0.034878932 -0.09194217
0000b0 23 88 06 3d 52 a2 59 3d 9e a8 92 3d ba 8f 0c 3d
       0.032844674 0.053133316 0.071610674 0.034316756
0000c0 bf 64 a7 3d e9 c4 40 ba d6 b3 77 bd cf 5c 62 bd
       0.08173513 -0.00073535606 -0.06047424 -0.05526429
0000d0 76 0d ed 3c 02 20 41 3c 55 d1 d6 bd c2 4d 9b bd
       0.028937083 0.011787416 -0.10489146 -0.075831905
0000e0 d8 72 1d bd b3 2e 8a 3d ec 9a 04 3d 84 55 0c bd
       -0.0384396 0.067471884 0.032374308 -0.03426124
0000f0 80 27 61 3d 0a 31 4e bd 47 40 b5 bd 74 5d 06 bb
       0.05496931 -0.050339736 -0.088501506 -0.002050248
000100 54 c6 c2 bd 0e d0 b4 bc 45 1a a4 3d 1d e4 fb 3c
       -0.09510484 -0.022071864 0.08012823 0.030748421
000110 73 b2 ca bd d5 3e 62 3d 7d b2 85 3d f3 d5 a8 bd
       -0.09897318 0.055235703 0.065281846 -0.082439326
000120 64 7f c2 bd 80 5a 6b bb a8 6f af 3d 5f 95 a2 bd
       -0.09496954 -0.0035912097 0.085662186 -0.079386465
000130 a6 55 a1 3d e4 89 42 bd 85 75 12 bd 95 88 45 3d
       0.07877664 -0.047494784 -0.035756607 0.048225958
000140 56 3b d5 bd 11 99 0d bd 86 57 bb bd 13 26 f4 bc
       -0.10411708 -0.034569804 -0.09147553 -0.029803311
000150 f8 24 a2 bd 40 ab ea bb 08 dd 28 3d 2b 95 95 3d
       -0.079172075 -0.007161528 0.041226417 0.07303842
000160 d3 d3 d4 bd 7e 7d a9 bc 26 8f d4 bd 62 93 b2 3c
       -0.10391965 -0.020689722 -0.10378866 0.021798793
000170 d9 7e 82 3c 0e 2f 02 3d f3 cc 55 bd 3b b4 9a 38
       0.015929626 0.031783156 -0.052197408 7.376863e-05
000180 93 bf 58 3d 86 73 c4 bd 87 b0 1f bd b9 2e 6d 3d
       0.052917074 -0.09592347 -0.03898671 0.057905886
000190 2a 31 c0 3c c4 c7 70 3d 9f 82 4a 3c 57 af 65 3d
       0.023460943 0.05878426 0.012360244 0.05607542
0001a0 b9 40 3f bd ad 3b 7a bd e7 ed bf 3d 72 29 8c bd
       -0.046692584 -0.061092068 0.09371548 -0.068438426
0001b0 57 c9 2b bd e8 60 c0 bb 64 7a 09 3e d1 52 3d bd
       -0.04194006 -0.005870927 0.13425595 -0.046221558
0001c0 1b 32 5f 3d de 80 8e bc f6 e0 80 3d 7e 6e de bd
       0.054491144 -0.017395433 0.06292908 -0.108609185
0001d0 ca 79 1d 3d 41 bf b1 bd 2a b0 bd bc d0 0f 1e bd
       0.038446225 -0.08679057 -0.02315529 -0.0385893
0001e0 ac 4b f9 bb f1 42 43 3d 07 b4 86 3d 98 d9 6b bc
       -0.0076078977 0.047671262 0.06577306 -0.01439514
0001f0 48 e4 6c bc b0 4c d4 bd d5 81 9b 3d ca 68 30 bd
       -0.014458723 -0.103661895 0.07593123 -0.043068685
000200 0e 91 b2 bc 77 f7 9c 3d b3 12 e0 3d d6 13 4a 3b
       -0.021797683 0.07664388 0.109410666 0.0030834577
000210 41 ef 47 bb 03 bf 36 3d 97 e0 9c bc e0 76 92 3c
       -0.0030507597 0.044615757 -0.019150062 0.01787895
000220 b9 bc 28 3d 0b ba 68 3d 70 2a 6e bd 15 3a 9e bd
       0.041195605 0.05681805 -0.05814594 -0.07725922
000230 e7 6a 33 3c 27 35 81 3c fd a3 ec 3d aa 42 ac 3d
       0.0109507805 0.015772415 0.11554716 0.08411153
000240 3b 76 37 3d b7 2e 8b 3c a9 bf 8e bd f1 4d b5 bc
       0.044790488 0.016990049 -0.0697015 -0.022131892
000250 fc 03 85 bd 66 2b 68 3d e3 e1 16 3e f0 ca 51 bd
       -0.064949006 0.056682013 0.14734606 -0.051218927
000260 cf 97 0f bd 86 6f 93 bd c2 b0 bb 3d fc f7 11 bc
       -0.035056885 -0.07199006 0.09164573 -0.008909222
000270 18 40 1c be 83 d1 ea bb 88 da 7e 3c 4d 17 ba 3c
       -0.15258825 -0.007166089 0.015555032 0.022716189
000280 81 99 5b bd 3a 3d 66 3d 28 3e 3c bb 7b ed 4b 3c
       -0.05361319 0.056210734 -0.0028723571 0.0124467565
000290 e6 fc 27 be fa e4 a3 3d 05 33 e5 bc 1b 32 0c 3e
       -0.16405067 0.08002658 -0.02797843 0.13690989
0002a0 ad f7 24 3d 0e 86 03 3d e3 1d ea bb ef 0f cb bd
       0.040275265 0.032110266 -0.007144676 -0.099151485
0002b0 2b 47 4e bb ab 92 58 bd 73 77 30 3d 9e 5e 4e bd
       -0.0031475525 -0.05287425 0.043082666 -0.050383203
0002c0 e1 23 63 bc 0c 39 b9 3d 3d d3 03 bd 79 e7 12 3d
       -0.013863535 0.09044084 -0.032183874 0.03586528
0002d0 61 d3 a3 3d c5 2e a6 3d 20 14 04 be b4 32 a3 bc
       0.07999302 0.08114389 -0.12898302 -0.019921638
0002e0 df e5 32 bd 80 34 cd bc a3 49 b1 3d db ed ce 3d
       -0.043676253 -0.025049448 0.08656623 0.10103961
0002f0 cf 6c 7d 3d 09 a2 c7 3d 58 31 9a bd 64 76 42 3d
       0.061871346 0.09747703 -0.07528943 0.047476187
000300 b7 d4 94 3d 0b 79 61 bd 80 e6 2e bc a6 02 88 bd
       0.07267135 -0.055047076 -0.010675073 -0.0664113
000310 22 8c 2a 3d ae 6c 46 3d a7 fd f3 bc fa 72 56 3d
       0.041637547 0.04844349 -0.029784037 0.052355744
000320 67 97 ee 3c 63 b1 06 ba a2 03 78 bd d7 a5 65 bd
       0.029124929 -0.0005138127 -0.06055034 -0.05606636
000330 27 6a c9 bc 46 52 75 3d 1a e4 ac bb e9 c0 fc b9
       -0.02458675 0.059892915 -0.0052762153 -0.00048208915
000340 9c 8e 73 3d 9e 16 0a 3d 5e 39 80 bc 04 6a 00 3d
       0.059462175 0.033712976 -0.015652355 0.031351104
000350 62 be 66 3c 0b e7 00 3e d0 5e 29 bd b5 11 39 be
       0.014083477 0.12588136 -0.041350186 -0.18073161
000360 81 44 e5 bd 00 f4 24 bd b5 0c 74 3c c1 bf e7 bc
       -0.11194707 -0.04027176 0.014895608 -0.028289678
000370 16 11 03 3d 7f 17 d8 bc 7d ea 92 3d 3e 8b 3d 3c
       0.031998716 -0.026378391 0.07173631 0.011568842
000380 a1 49 56 be 2a 03 8f bc bd af b0 3c 91 47 b0 3c
       -0.20926525 -0.017457563 0.021568174 0.0215185
000390 c5 ca ac bd 4e 27 03 3d 48 8d 22 3e 88 9e 6a 3d
       -0.08437113 0.032019906 0.15874207 0.057280093
0003a0 d1 29 12 be 20 5c b5 bc 7b 02 7f bd 33 cc 01 bd
       -0.14273764 -0.022138655 -0.062258225 -0.03168888
0003b0 cc 3f c2 bc 02 67 10 bd d4 d8 30 bc 73 bc 8b bd
       -0.023712061 -0.035254486 -0.010793883 -0.06823053
0003c0 a2 92 0a 3d c9 27 81 3d ea e0 d6 3c 30 ea 23 3d
       0.033831246 0.063064165 0.026230294 0.04001826
0003d0 35 de b4 bd 39 99 b9 3d 7e 7c 75 3d c4 12 c9 3d
       -0.08831445 0.09062428 0.059933178 0.098180324
0003e0 7d ba 92 bd 23 7a 70 3d 17 45 8e bc 7f 6d d6 3d
       -0.07164476 0.05871023 -0.017366929 0.104701035
0003f0 1d f3 6a bd ec 77 b2 3d a4 bc b2 3c cb bf a0 bd
       -0.057360757 0.087142795 0.021818466 -0.078490816

linear2.bias f4 [100]
000000 94 74 ab bd 7e 91 d3 3d 10 f5 97 3d 48 f4 8e 3d
       -0.08371845 0.10330485 0.07419789 0.06980187
000010 18 4e 1a bc 6c 19 df 3c 21 99 bf bc 55 0c 53 bd
       -0.009418033 0.027233802 -0.023388447 -0.051525433
000020 9c 46 e9 3c a8 42 63 3b 87 e3 b4 bd e5 2e 78 bd
       0.028476052 0.0034677181 -0.0883246 -0.060591597
000030 25 44 57 bd f0 8e 1b 3d 13 3b 23 bd 82 2c 02 bd
       -0.052555222 0.037978113 -0.03985126 -0.031780727
000040 f3 5f bf 3b 87 8f 7a bd 23 d0 d2 bb 80 87 1b bd
       0.0058402955 -0.061172035 -0.0064335032 -0.03797102
000050 72 60 8a 3d f9 83 25 bc 1a 22 c1 3a 0e 3b 26 bd
       0.06756677 -0.0101022655 0.0014734895 -0.040583663
000060 83 f2 1b bd 5a d8 8b bd ef cb 4c 3d a0 ab b1 3d
       -0.038073074 -0.06828375 0.049999174 0.08675313
000070 f1 b5 60 3d 02 b6 8b 3d c5 e0 d0 3d e6 1d be 39
       0.054861013 0.068218246 0.101991214 0.000362619
000080 03 89 5a bd d3 74 a3 bd 4f 72 d7 3d f3 b0 ee bc
       -0.05335332 -0.07981267 0.105198495 -0.02913711
000090 8d 04 ad 3d be 52 98 3d f1 a0 61 bd 57 c8 84 3d
       0.084481336 0.07437657 -0.055085126 0.06483524
0000a0 57 4a 8a 3d 0e 93 85 bc 8a 13 b0 b8 ad fb 7f bd
       0.067524604 -0.016305473 -8.3959734e-05 -0.062495876
0000b0 4a 7a f9 bb f8 a6 9b bd 9a 53 2c bc ef 8c 0c 3d
       -0.007613455 -0.07600206 -0.010517979 0.034314092
0000c0 cd 83 17 bd 91 90 9e bd 4c 26 d0 bd da 10 2b 3d
       -0.03699093 -0.077424176 -0.101635545 0.041764118
0000d0 5c be 85 bd 7d 71 39 3d 02 77 61 3a 31 f6 70 bd
       -0.06530449 0.045274246 0.00086008024 -0.058828536
0000e0 3c 8a 39 3d 0b 62 33 3c a2 d6 bd 3d 7c 42 e1 3d
       0.045297846 0.010948668 0.092694536 0.10999009
0000f0 48 8b 94 bd 84 aa af bd 16 33 9b 3d fd 28 66 3d
       -0.07253128 -0.08577445 0.07578103 0.056191433
000100 09 5d 18 3b 14 91 7e 3d 7a 50 8b 3c 9a 3d 3d ba
       0.0023248813 0.062150076 0.017006148 -0.0007218957
000110 61 b0 d8 bc 4b de 24 bd ae e1 e4 bd 16 b9 e0 3c
       -0.026451292 -0.040251058 -0.111758575 0.027432006
000120 0b a5 82 bd 56 fb 85 3d b3 a3 d7 bc 20 fa 75 3d
       -0.06379136 0.06542079 -0.026323175 0.06005299
000130 61 74 80 bd 36 cc 1a 3d 9e 18 86 bb dc 88 9d bd
       -0.062721975 0.037792407 -0.00409229 -0.076921195
000140 f9 87 a8 bc ba b0 32 bc e3 97 c3 bc b3 8e ad 3d
       -0.02057265 -0.010906393 -0.023876136 0.08474483
000150 ee 94 d3 3d 51 4f bf 3d b0 01 62 3d cf e5 b5 bd
       0.103311405 0.093413 0.05517739 -0.08881723
000160 ee ea 9e bd 10 bf c6 3c 9e d5 52 bd bf e5 38 bd
       -0.07759653 0.024261028 -0.051473252 -0.045140978
000170 66 c5 43 bd 33 86 f7 3c e9 2c d0 bd 97 88 e8 ba
       -0.047795676 0.030215358 -0.10164816 -0.0017740902
000180 35 a7 e1 3b 59 ce 37 3d e4 66 7f 3d 62 7b b6 3c
       0.0068863877 0.044874523 0.062353984 0.02227563

linear3.weight f4 [3, 100]
000000 af 52 9b 3d 1c 33 84 3c 87 15 c9 3c 29 cc 8a 3c
       0.0758413 0.016137652 0.024546398 0.016943054
000010 c3 8c 19 bd 83 3f 08 bd 81 ac c6 3d 00 2a bd 3c
       -0.037487756 -0.033263694 0.09700871 0.023091316
000020 58 4d 0c 3d 08 50 91 bd f9 6c 50 bc 45 2d 88 3c
       0.03425345 -0.07095343 -0.012721294 0.016623149
000030 ae b8 a2 bd 17 14 a6 3d 0c 09 15 bc f2 78 de 3d
       -0.07945381 0.081093006 -0.009096395 0.10862912
000040 8f 99 05 bd 51 59 1e 3c eb 33 08 3b 0b dd 60 bc
       -0.032617148 0.009664849 0.0020782899 -0.013724576
000050 bc f1 a9 3d 81 30 b8 3d 6f 1a 24 bc 8b fe 62 bd
       0.0829806 0.089936264 -0.010016068 -0.055418532
000060 58 93 9d bd 33 a4 65 3d b4 60 47 3d 45 ac 8a 3d
       -0.07694119 0.056064796 0.048676208 0.06771139
000070 20 cd d0 3c 39 23 9c 3d 69 50 88 3c 2f 96 cf 3c
       0.025488436 0.07623906 0.016639905 0.025340168
000080 1f 2e 67 bd 33 d5 9e bb 54 6a 0d 3d 42 ae 9c bd
       -0.05644047 -0.0048471927 0.03452523 -0.076504245
000090 53 3f 72 bc 96 69 79 3d ed 1c 06 bc 28 f6 a4 3d
       -0.0147856055 0.06089171 -0.008185607 0.08054763
0000a0 d8 2a 69 3d a3 1d 1d bb 5f d0 93 bc ae e4 9c bd
       0.056925625 -0.0023973964 -0.018043695 -0.07660805
0000b0 d9 e7 0f bd 43 bd a0 39 df 60 96 3d 2e 15 98 3b
       -0.035133217 0.0003065859 0.073426954 0.0046411967
0000c0 9c 2a b1 3d ed 13 81 bc 05 1c d0 bc cd 83 16 bd
       0.08650705 -0.015756572 -0.025403986 -0.03674679
0000d0 8d 81 8f 3d 34 69 9e bd 72 08 51 be 1d f1 ae 3c
       0.07007132 -0.0773491 -0.20413378 0.021355206
0000e0 ba b7 89 3d f5 06 9a bd 28 46 3a 3d dd df 9f 3d
       0.06724496 -0.07520858 0.045477062 0.078063704
0000f0 f8 89 95 ba 61 70 af 3d 8d 6e 26 3d cc d7 e7 3d
       -0.0011408916 0.085663565 0.040632773 0.11320457
000100 98 61 fe bc fe 1c bb bd c4 ca 63 3d f5 f5 b5 3d
       -0.031052396 -0.09136389 0.055613294 0.08884803
000110 88 59 3c bd a3 9f e7 3d cf ad 52 bd 02 7d 5b bd
       -0.04598382 0.11309745 -0.051435288 -0.053586014
000120 0f cc d0 3d d1 8e 33 bd c7 23 4b bd e3 ba 90 bd
       0.10195171 -0.043837372 -0.049594667 -0.07066896
000130 40 39 2a bd 5e 52 ad bd 58 27 55 3d 44 1a 96 bd
       -0.041558504 -0.08462976 0.052039474 -0.073292285
000140 50 71 6b 3d 0b 22 c1 3d e0 99 a5 3d bb eb 06 3d
       0.05748111 0.09430321 0.0808599 0.032939654
000150 fc 95 94 bd 7d 1d db 3d 6b 60 cd 3b 61 b8 93 3d
       -0.0725517 0.10698984 0.0062675974 0.07212902
000160 83 6e 66 bc 72 cb 63 bd d4 c8 34 bc 31 44 d1 3d
       -0.014064434 -0.055613942 -0.011034209 0.102180846
000170 a5 31 47 3d 30 46 72 3d 06 7f 8a bd 2c cd 87 3d
       0.04863133 0.059148967 -0.06762509 0.0663093
000180 1e fd d9 3c ca 14 06 bd 0a 6c 03 bc 6b e2 22 3d
       0.026609953 -0.03273467 -0.008021364 0.03976671
000190 85 b6 05 3d 31 8f 61 bd 97 d9 04 3c 76 f2 40 3d
       0.032644767 -0.0550682 0.008108518 0.04710623
0001a0 ea 8f 58 bd 67 7f 83 3d 5a a6 04 3d 8d de c2 3d
       -0.052871622 0.064207844 0.032385208 0.095151044
0001b0 65 f1 75 bc 9b b0 c1 bd 31 89 30 3b 3d d6 88 bd
       -0.015011166 -0.09457513 0.0026937241 -0.06681488
0001c0 0d f4 c8 bc ca c2 b5 3c 69 69 11 bd 15 b8 7f 3c
       -0.024530435 0.02218761 -0.035500918 0.015607853
0001d0 bf d8 bd bc 21 f1 24 bc 94 54 f1 3d f4 40 04 be
       -0.023174642 -0.010067255 0.1178371 -0.12915403
0001e0 1c c3 85 3c ba d2 2b 3d b6 4a 27 3c 54 be 83 3c
       0.016328387 0.04194901 0.010210684 0.016081966
0001f0 a4 31 c2 3d 6a 3b 9c bd 28 4e bc bc 4d 7d 8a bd
       0.094821244 -0.0762852 -0.022986487 -0.067621805
000200 03 b3 cd 3c 16 c9 a6 bd 4f d2 82 3d 80 4a 34 bd
       0.025109774 -0.08143823 0.063877694 -0.04401636
000210 fc 05 67 bd 75 58 a3 bd f2 20 55 3d 7b 24 a3 3c
       -0.05640219 -0.07975856 0.052033372 0.019914856
000220 58 4c 8b 3c fb 7e f9 bc 16 7e 25 bd 03 1e 76 3d
       0.017004177 -0.030456057 -0.040403448 0.060087215
000230 c2 08 ee 3b 47 e1 4b 3d fd 6e 07 be 2e 02 ac bd
       0.0072642276 0.049775388 -0.13225932 -0.08398853
000240 ed 85 b4 3d eb e1 86 bd 15 74 04 3e fc 18 a3 3b
       0.08814607 -0.06586059 0.12934907 0.0049773436
000250 21 dd b5 bd 86 04 b5 bc 20 86 02 bd 8f 21 f0 bc
       -0.088800676 -0.022096884 -0.031866193 -0.029312877
000260 f1 45 a2 3d 36 6a 1b 3d cd 39 b7 3c 19 c5 d8 bb
       0.079234965 0.037943088 0.022366429 -0.0066152927
000270 a6 a8 12 3b 86 35 65 bd 49 b4 bb bd 9d 5d 84 bd
       0.0022378354 -0.055959247 -0.09165246 -0.06463168
000280 bd c9 24 bb ac 61 ad 3d bf 91 bc bd d3 7b df 3c
       -0.002514466 0.08465895 -0.09207486 0.027280724
000290 09 1f 96 bd 48 e7 6f bd 2e d1 b2 bd 03 7c ab 3d
       -0.07330138 -0.058570176 -0.08731304 0.08373263
0002a0 97 ce 8c 3d 28 a8 a3 bc c5 77 5c bd 61 3e 83 bd
       0.068753414 -0.019977644 -0.05382516 -0.06408382
0002b0 cb bc b6 3d 7f 93 85 3d 7a 6e fe bc 27 9f 52 3d
       0.08922728 0.06522273 -0.031058539 0.05142131
0002c0 70 53 ad 3d 26 c7 2c bd 26 91 b2 3d ae ef 80 bc
       0.0846318 -0.04218211 0.08719091 -0.015739288
0002d0 fb 65 fa 3d d8 81 85 3c e9 70 96 3d 23 76 f9 ba
       0.122264825 0.016297266 0.07345755 -0.00190324
0002e0 cc 31 15 be f1 7c c2 3d 18 1a d3 bb 39 65 96 3d
       -0.14569777 0.09496487 -0.0064423196 0.073435254
0002f0 b8 46 85 bd 84 d5 3c 3c 0d b7 fd 3d 01 70 1c bd
       -0.06507629 0.0115255155 0.1238843 -0.038192753
000300 7d c7 c3 bd 62 98 36 3d 18 89 9a 3c 0a 26 8d 3d
       -0.09559534 0.044578917 0.0188642 0.06892021
000310 9d 26 c8 3d 3e c5 e7 3b c1 d8 28 bd e0 70 ed bd
       0.0977299 0.0070730736 -0.041222338 -0.11593795
000320 3d 86 94 bd 1d 94 64 3d c1 dd 1d 3e 3b 7f c6 3d
       -0.072521664 0.055805314 0.15416624 0.09692236
000330 eb 67 e1 bd eb d8 cc bb ef 78 0d be de 49 45 3e
       -0.11006149 -0.0062514446 -0.13815664 0.1926646
000340 21 ea 0d 3d 7b a0 85 3d 9e 5b 0b bf e5 4f ac bc
       0.03464711 0.0652475 -0.5443667 -0.02103419
000350 c9 05 fe 3d e5 10 c6 3d 1a f5 05 3e 93 6f a5 bd
       0.12403447 0.09671191 0.1308178 -0.08077922
000360 53 2a 8e be fa 6b 2a 3e b2 34 3c 3d 89 d7 ff 3d
       -0.27766666 0.16642752 0.04594869 0.12492282
000370 0b 6e b8 bd b3 95 5e 3d eb 7b c7 bb 4f bd c5 bc
       -0.09005364 0.054341983 -0.00608777 -0.024138121
000380 b3 44 a4 3c 69 8b be 3d 7b 04 4c 3e f2 99 d9 3c
       0.02005229 0.09303934 0.19923584 0.026562665
000390 b1 32 e0 bd d9 ac 8c bc e6 3d fd 3d 67 60 64 bd
       -0.109471686 -0.017172264 0.12365322 -0.055756
0003a0 d8 e1 bb 3c d0 67 73 bd ab d9 12 be db ad 99 bb
       0.02293484 -0.059425175 -0.14340846 -0.0046899146
0003b0 ef 2f 00 3e e6 94 65 3d 10 03 73 bd 0e e0 60 bd
       0.12518285 0.056050204 -0.059329093 -0.054901175
0003c0 60 4e 63 3c 55 af 12 3e ff 5f 1f be 83 5c a5 3d
       0.0138736665 0.14324696 -0.15563963 0.08074286
0003d0 03 67 e4 3d f0 49 79 3c bb 01 2d 3e ea 1d d5 3d
       0.111524604 0.015215382 0.16895191 0.10406096
0003e0 1d af 9d bd 23 c0 25 bf 3a 94 37 3c 78 28 95 3e
       -0.07699416 -0.647463 0.011204774 0.29132438
0003f0 db af 15 bd 7a 3e 55 bd bc 9e 6f be d7 b3 c9 bd
       -0.036544662 -0.052061535 -0.23400396 -0.09848755

linear3.bias f4 [3]
000000 2d a0 9a 3d d8 52 99 3a 07 e3 c4 3d
       0.07550082 0.0011697663 0.096136145
