models/pushing_residual_dynamics_model.pt (torch, 46871 bytes, 6 tensors)

linear1.weight f4 [100, 6]
000000 1f 6e 93 be 0a 77 8d be 01 f0 bd 3e 8e 97 46 3c
       -0.28794953 -0.27629882 0.3709717 0.012121094
000010 5a 58 7b bd 77 76 7c 3e fd 91 7c 3d 04 06 92 3e
       -0.061363555 0.24654566 0.061662663 0.28520215
000020 cf e4 1f be e4 ef 4f 3e 4e 9a bd be 27 e4 bd 3e
       -0.15614627 0.20306355 -0.37031788 0.3708813
000030 b6 ae 01 3d 36 94 04 3c 62 a4 b5 3e d7 05 ee 3d
       0.031660758 0.008091977 0.35476977 0.116222076
000040 6d fc 6c be 3b 12 04 be 9d bd a4 bd 15 ad 74 3e
       -0.23143168 -0.1289758 -0.08043978 0.2389415
000050 28 89 c5 bc 10 2d 6a 3e e3 c5 49 3d 90 e0 18 be
       -0.024113253 0.22868752 0.049260985 -0.14929414
000060 9d 4e a8 be 50 4a 15 bf db cc 99 bd 75 aa 22 be
       -0.32872477 -0.58316517 -0.07509776 -0.15885337
000070 6c a6 0c 3e 0f 8c ae be 82 21 ba be cd 90 df bd
       0.1373536 -0.3409123 -0.3635369 -0.109162904
000080 32 e9 af 3e 05 18 8d 3d 59 12 5c 3e b6 cb bc 3e
       0.343576 0.06889347 0.21491374 0.3687417
000090 46 d9 bb bd 25 8c 0b 3d d6 4a ed bb 9e ab a6 3e
       -0.09172301 0.0340692 -0.007241587 0.3255281
0000a0 82 1c 1e be 17 f8 5e 3d 7d 66 c6 be 91 22 0c 3e
       -0.15440562 0.054435816 -0.38750067 0.13685061
0000b0 a2 10 85 be 38 36 73 3e 7b e1 53 be 1e c4 42 3e
       -0.25989252 0.23751152 -0.20691483 0.19020125
0000c0 e0 c1 27 3e b0 a2 0c 3e e4 50 c2 3e 69 95 ae 3b
       0.16382551 0.13733935 0.3795234 0.0053278697
0000d0 67 7d 0b be e3 9c cc 3e ea a1 a4 3b 91 b7 55 3d
       -0.13622056 0.39963445 0.0050241845 0.052177016
0000e0 d6 cb 3a be bf 4e 2a 3e e2 2d ab 3e b9 c0 ea 3d
       -0.1824182 0.16631602 0.33433443 0.1146254
0000f0 53 4e 4d 3d de 34 fb bd 67 7f 7c 3e a4 1e 04 bd
       0.050123524 -0.12265943 0.24657975 -0.032255784
000100 df 50 8c be 1a a2 38 bd 61 48 da 3e cf 0d 8f be
       -0.2740545 -0.045076467 0.42633346 -0.27940223
000110 d3 81 71 be 7d 5d 82 be 67 a2 b4 be ae 84 5f be
       -0.2358468 -0.2546195 -0.35280153 -0.21827957
000120 d3 c3 7c bd 81 ef f2 3d bb c4 9d 3e 60 2e e1 bc
       -0.06171019 0.11862088 0.30814156 -0.027487934
000130 9d 12 88 3e 0a 2c af 3e 2f 6c 67 be 0c 32 3f be
       0.265767 0.34213287 -0.22599863 -0.18671435
000140 44 bf ac 3e 36 4a 24 be b4 77 f7 bd f1 40 17 be
       0.33739674 -0.16043934 -0.120833784 -0.14770867
000150 bb 69 15 3e 6c 56 d0 be 9f 33 55 be 55 f7 85 3e
       0.14591114 -0.40690935 -0.20820473 0.26165262
000160 47 a8 a1 3e d6 a3 76 3d e5 07 92 be e2 30 cd 3d
       0.31573698 0.06021484 -0.28521648 0.10019089
000170 0a c8 32 3e 1f c5 5e bd 25 04 97 bd d6 28 8c bc
       0.17459121 -0.054387208 -0.073738374 -0.017109316
000180 2a 97 b5 3e af b8 3a be ce ba a9 bd dd 73 af 3e
       0.35466892 -0.18234514 -0.08287583 0.34268084
000190 29 15 6d be 1d e4 93 bd 9b 42 c8 be 2e f4 9f 3e
       -0.23152603 -0.072212435 -0.39113316 0.31240982
0001a0 22 6c 3c bd 2c 34 68 be a4 66 b4 3e 88 68 b9 3e
       -0.04600156 -0.22676152 0.3523456 0.36212564
0001b0 1b f6 bf 3c d3 4f 91 be bf e6 89 3e c8 da 49 3e
       0.023432782 -0.28381214 0.26933858 0.19712365
0001c0 1f 03 cd 3e 77 89 40 be df de 14 be bf 83 6f 3e
       0.40041444 -0.18802439 -0.14538144 0.23390101
0001d0 58 35 55 be f2 f2 94 3e fc e6 54 bc 44 0c d0 be
       -0.2082113 0.29091603 -0.012994524 -0.40634358
0001e0 99 48 ee bb da cb 7b be 7b e5 29 3e de 12 8c 3e
       -0.007271838 -0.24589482 0.16591446 0.27358145
0001f0 ba c4 41 3e 00 26 7b 3e 13 4c 3a be 0b 60 53 be
       0.18922701 0.24526215 -0.18193083 -0.20642106
000200 0d 4b e1 3d b5 97 95 3e 50 9c 5e be f7 ab a7 39
       0.11000643 0.29217306 -0.21739316 0.00031980846
000210 2a 0f c7 3e f1 cb c8 be 4f b3 e5 3c 95 52 67 be
       0.38878757 -0.39218095 0.028039603 -0.22590096
000220 e1 e8 7a 3d 53 ee 50 bd 03 0c b0 bd 87 bf 56 be
       0.061257247 -0.051008534 -0.08596041 -0.209715
000230 e5 e4 94 3e 1d a7 c9 be fd 8e eb 3d ba 5e 10 3e
       0.29080883 -0.3938531 0.11501882 0.14098635
000240 78 28 95 be 40 f2 91 3e 4a c3 78 be 8a 8b 70 3e
       -0.29132438 0.28505135 -0.24293247 0.2349073
000250 87 c0 ae bd 1d 48 9f 3e d3 c8 01 3e 44 52 1f 3c
       -0.085328154 0.31109706 0.12674265 0.0097242035
000260 42 cc 3a bd fe f8 1e 3e c7 ae 82 3e 5a 44 a6 be
       -0.04560495 0.1552467 0.2552397 -0.32474023
000270 08 02 96 3e 45 49 24 3d 66 9e b1 3e bd 81 d1 bb
       0.29298425 0.040108938 0.3469116 -0.00639364
000280 2f 0a 6b 3d 77 67 33 3e 2b 87 6a be 6c 95 fe bd
       0.05738276 0.17519937 -0.22903125 -0.12430844
000290 e9 b2 9b bd ab 01 df bd 82 65 5f be f9 a6 55 be
       -0.07602484 -0.1088899 -0.21816066 -0.20864476
0002a0 29 a0 c5 3e 34 06 a3 be b6 ab 59 bd d2 d2 85 3e
       0.38598755 -0.3184067 -0.053142272 0.26137406
0002b0 76 6b b1 3e 4c 50 af be f9 ef 34 be 09 46 ce 3b
       0.346523 -0.3424095 -0.17669667 0.00629497
0002c0 d7 16 29 be 65 ef 9b be 1c 7a 58 3e cc b7 d2 3d
       -0.16512619 -0.3045608 0.21140331 0.10288963
0002d0 fa 97 76 bd 61 b8 e4 bd d3 61 de be cc e3 73 3c
       -0.06020353 -0.1116798 -0.4343401 0.014885854
0002e0 09 84 e3 3d 6a f8 ac 3e 48 34 94 3e 04 d4 91 3e
       0.11109168 0.33783275 0.28946137 0.28482068
0002f0 d8 f6 99 3e 45 89 9f be f6 24 a3 bd fb b4 9b 3e
       0.3007114 -0.31159416 -0.07966034 0.30411515
000300 3d 44 a6 be fa b7 96 be 2f 01 5c 3e c5 12 5c be
       -0.32473937 -0.29437238 0.21484827 -0.21491535
000310 b5 be b8 3e 2e aa ba 3e 9a bb 52 bd be 87 07 be
       0.36082998 0.36457962 -0.051448442 -0.13235375
000320 25 8b e3 3d 4e 1e e0 bd c9 61 de be 5a 07 fe 3d
       0.11110524 -0.1094328 -0.4343398 0.12403746
000330 fb d5 16 be 98 fa 9b 3e 9b 5c 9c be 74 08 68 3e
       -0.14730065 0.30464625 -0.30539402 0.22659475
000340 93 d4 6b 3e da 99 80 be 27 e1 93 3e 3d 96 38 3e
       0.2303031 -0.2511738 0.28882715 0.18026061
000350 af 4c 9d bd aa 7b ae bd c9 91 4c be be a6 54 3e
       -0.07680642 -0.08519681 -0.19977488 0.20766732
000360 72 22 2c 3e a7 e7 81 3d 55 1f 3d 3e 3f 46 bf 3e
       0.16810015 0.06343012 0.18468983 0.3735828
000370 8a cc 69 3e 10 f5 a9 be c6 87 7b 3e f2 84 a3 be
       0.22831932 -0.3319478 0.24563512 -0.31937367
000380 15 4f 93 3e f2 6b bc 3e 30 ba ac be 6c 4f b7 3e
       0.28771272 0.36801106 -0.337358 0.35802782
000390 fc 3f ae 3e 8a 13 4e 3d d1 06 a4 3e 76 d3 da 3d
       0.3403319 0.050311603 0.3203645 0.10684864
0003a0 44 0c 81 3e 6e 41 71 be 93 59 41 be 85 51 a0 be
       0.2520467 -0.23560116 -0.18881826 -0.31312194
0003b0 37 0e 5d 3d 82 56 86 be 23 48 14 be aa ea b9 3e
       0.053968634 -0.26237875 -0.14480643 0.36311847
0003c0 f1 fe 5b 3e fb d8 b7 3e 02 fc d2 3d 6b 48 04 be
       0.21483971 0.3590773 0.10301973 -0.1291825
0003d0 5f fc 72 3e 18 48 55 be ca 0a a3 3b d7 4d 8f be
       0.23729084 -0.20828283 0.0049756514 -0.27989075
0003e0 30 d4 93 3c fe 52 38 3e ea c8 4e be cb a7 ca 3e
       0.018045515 0.18000409 -0.2019383 0.3958114
0003f0 0e 20 94 be 48 25 a0 3e fa 3e e6 3c c8 db 23 be
       -0.28930706 0.31278443 0.028106201 -0.16001809

linear1.bias f4 [100]
000000 f8 f7 4d 3e e4 e6 b1 be fd af 03 3e 90 b3 9a bd
       0.20114124 -0.34746468 0.12860103 -0.0755378
000010 c5 b5 80 3e 75 c4 27 3e ac 61 16 be d7 c6 4e bd
       0.2513868 0.16383536 -0.14685696 -0.050482597
000020 90 cf ae bd 8c ff 85 bc dd 07 43 be c9 98 83 3e
       -0.08535683 -0.016357206 -0.19045968 0.25702503
000030 26 da 99 3e cf 0e 0d 3e f2 76 38 3d 70 e1 68 3e
       0.30049247 0.1377518 0.04503531 0.22742248
000040 8b 1e b9 3e 1e 57 db be 8f 22 51 3e ed b9 c9 be
       0.36156115 -0.42839903 0.2042334 -0.39399663
000050 7e 45 05 3e d2 c8 1a 3b 8d ee 2b be 88 c9 5b 3e
       0.1301479 0.0023618233 -0.16790219 0.21463597
000060 a8 8b 5b 3e 7d 75 8a 3e 09 93 af 3e 83 c5 7d 3e
       0.21439993 0.2704276 0.34291866 0.24782376
000070 74 bc c3 bd 21 01 62 3d 7d b8 10 be 92 8c 19 3e
       -0.09557429 0.055176858 -0.14132877 0.1499503
000080 9f a7 ac be 07 a6 c2 be 04 48 cb 3e 68 e1 4d be
       -0.33721635 -0.38017294 0.3970338 -0.20105517
000090 4a 90 21 be 15 59 b9 3e e5 1d fc bd c7 40 88 bd
       -0.15777698 0.36200777 -0.123103894 -0.0665298
0000a0 fc 03 c1 be 47 c4 69 be dc d4 11 be 5a f3 67 3e
       -0.37698352 -0.2282878 -0.14241356 0.22651425
0000b0 e5 91 87 3d e4 3c 16 3e f4 ef 96 3e 7d 73 2d 3e
       0.06619624 0.14671665 0.29479945 0.16938587
0000c0 89 ee 61 3e 31 db 4f be 3f 46 69 be c3 c7 e8 bc
       0.2206365 -0.20298459 -0.22780703 -0.028415566
0000d0 e8 2c 82 3e 8a 91 bb be a0 22 c9 bd a1 28 22 be
       0.25424886 -0.36634475 -0.09821057 -0.15835811
0000e0 ce ba be 3d 35 a7 ac 3e 03 46 b5 3e 82 ed f4 be
       0.09312974 0.3372132 0.35404977 -0.47837454
0000f0 6e 01 ab 3e 0c 7c a7 be 62 f5 c6 3e 91 21 22 be
       0.33399528 -0.32711828 0.38859087 -0.15833117
000100 8e 30 ff bd 47 a6 09 3d cc 39 10 be c1 20 46 be
       -0.12460433 0.03360584 -0.14084548 -0.19348432
000110 a9 41 26 3e 65 38 64 3e 2e e6 47 3e f7 6b f9 3d
       0.16235985 0.22287138 0.195214 0.12178796
000120 fa 67 08 3d ac f2 da 3e 83 12 89 bd 20 58 33 be
       0.033302285 0.4276327 -0.06692984 -0.17514086
000130 4d 49 83 3e e7 9e b5 bc ac e9 a0 be 45 49 a4 3e
       0.25641862 -0.022170497 -0.31428277 0.3208715
000140 b4 3f a0 be 5f 63 73 be 33 de 87 3e 9f 60 d8 3d
       -0.31298602 -0.23768376 0.26536712 0.10565304
000150 0a ad b1 bd 8a 23 bd 3e b5 36 04 3b 93 a2 31 bd
       -0.08675583 0.36941177 0.002017421 -0.043367933
000160 87 c4 dc bd 41 56 14 3e f6 b0 ce be 78 cf 1f 3e
       -0.10779672 0.14486028 -0.40369385 0.15606487
000170 a1 0a f1 bd ba 03 69 be f7 d9 bf 3e f8 1e 1c bd
       -0.117696054 -0.22755328 0.3747098 -0.03811547
000180 8a d2 2e 3e 9e ba 0d be 01 c1 88 3e e6 2d 4f be
       0.17072502 -0.1384072 0.2670975 -0.20232353

linear2.weight f4 [100, 100]
000000 a6 84 9d bd 97 40 0d 3d 7f 85 89 3d 27 f1 09 bd
       -0.07691316 0.034485426 0.067149155 -0.033677246
000010 a5 1a 0c 3d 9a e2 e5 3c 21 eb 9d bd c9 c9 b7 bd
       0.034205098 0.028062154 -0.07710863 -0.08974034
000020 c1 3e 21 bc 05 e5 14 bd b0 15 94 bd 74 a6 a2 3d
       -0.009841622 -0.036351223 -0.07230699 0.07941905
000030 14 f6 c0 bd 38 8b 25 bd 49 54 a4 3d 79 05 a1 bc
       -0.09421936 -0.040415972 0.080238886 -0.01965593
000040 4d 6d 72 3d 09 a1 bd bc 4e 97 b6 3d c3 ef 5c 3d
       0.05918627 -0.023148077 0.08915578 0.053939592
000050 7c 0c c7 bd f3 67 b2 3d 45 bb 85 bd 5d 77 8f 3d
       -0.09719178 0.08711233 -0.065298595 0.070051886
000060 4f fc 68 bd 51 80 bb bd be 36 ae 3c 4f c9 b4 bd
       -0.056881245 -0.09155334 0.021266337 -0.08827459
000070 45 5b 15 bd 94 65 8f 3d 0c d4 9a 3c 51 7b 93 bd
       -0.036463995 0.07001796 0.01889994 -0.07201255
000080 44 69 8a ba bf b4 c9 3c 01 85 1d bd 72 55 93 bd
       -0.0010559936 0.02462232 -0.03845692 -0.07194032
000090 20 5e c3 3c 4f 8f 63 3d 3e 87 86 3d 4d 88 e9 3b
       0.023848593 0.05555659 0.06568764 0.007126844
0000a0 4b 0a af bd fc 3e 35 3d 6c 20 08 3d 5b 52 9c bc
       -0.08546885 0.04424952 0.033234045 -0.019082239
0000b0 a3 47 ce 3c 7e 7c 02 bc 64 e5 5e bd 1e 01 cd bc
       0.025180643 -0.007964252 -0.054417983 -0.025024947
0000c0 6b f2 37 3d ef e8 be 3d 35 3b 10 bd fe 16 b2 3d
       0.044908922 0.09321772 -0.035212714 0.08695792
0000d0 f1 ad 72 3d b4 f7 80 3d 72 1a cc bc 96 56 cb 3c
       0.059247915 0.062972456 -0.024914954 0.02482156
0000e0 0f df 51 bd e9 cf 93 3d e9 2d 3f bd b8 d2 de bc
       -0.051238116 0.0721739 -0.046674643 -0.027200088
0000f0 66 a7 4d 3d aa 7e 75 bd df 2b 7b bc 79 b7 3b bd
       0.05020847 -0.05993525 -0.015330284 -0.04582927
000100 14 05 f7 bc f4 36 b7 bd 37 e1 a1 3c 8e 30 e4 3b
       -0.030153789 -0.08946028 0.019760711 0.006963796
000110 1c 11 2c 3c 64 3d 5c bd f7 97 47 bd 5f 28 50 3d
       0.010502126 -0.053769484 -0.04872891 0.05081975
000120 92 29 53 3b d3 06 40 3d 45 07 bf 3d 73 ec 84 bd
       0.0032220823 0.046881508 0.093275584 -0.064904116
000130 35 10 b8 3d ac 52 bb 3d cc fb af bc c8 4d 09 bd
       0.08987466 0.09146628 -0.02148237 -0.033521444
000140 45 ba 1c 3c 87 92 ed 3c e8 4d 70 3c d6 01 7a 3c
       0.0095658945 0.029000534 0.014667012 0.015259227
000150 81 d3 cc bd b1 b4 c5 3b 39 86 f2 3c 94 c2 78 3b
       -0.10001279 0.006033503 0.029605018 0.0037957774
000160 4e 89 97 bc b2 f6 45 bd 88 c7 b0 3d cf aa 6e 3d
       -0.01849809 -0.04833097 0.086318076 0.058268365
000170 88 b6 85 3d 98 b7 6a bd 42 7b ab 3b 3a 87 a5 bd
       0.06528956 -0.057303995 0.0052331993 -0.08082433
000180 f2 ad c6 3c 10 68 ba bc 39 57 cb bd 66 7e 79 bd
       0.024252865 -0.022754699 -0.09928746 -0.06091156
000190 89 1e 92 3d ee 32 a7 bc d8 34 b2 bd a9 1a a1 3d
       0.0713473 -0.020410027 -0.087014854 0.07866413
0001a0 44 0e db bd 90 22 d0 bd ee 57 c5 ba 73 2c cb bd
       -0.1069608 -0.10162842 -0.0015056112 -0.099205874
0001b0 a6 3b c7 3c 8a 56 c8 bd a3 8e 55 3d db bb 2f 3c
       0.024320435 -0.09782131 0.052137982 0.010725941
0001c0 35 e8 15 bd 36 4f 6f 3d 63 19 96 3a 5d 4d 0f bd
       -0.036598403 0.05842515 0.0011451658 -0.03498589
0001d0 ff 71 67 3d 33 81 4c 3d 11 4d ad 3b 8f f9 c1 bd
       0.0565052 0.0499279 0.005288728 -0.09471428
0001e0 78 0a 89 bd ca f3 75 3d bc fd 62 bd e1 e4 4f ba
       -0.0669145 0.06004695 -0.05541776 -0.0007930529
0001f0 2d 38 ee 3c 63 86 d5 ba 3e 1e 32 3d 12 0b b0 3d
       0.029079521 -0.0016290661 0.043485872 0.085958615
000200 f6 50 b3 3d b1 20 bc bd a3 d8 49 bc 76 7e 3b 3d
       0.087556764 -0.09185923 -0.012319717 0.0457749
000210 56 5c 97 3d 90 ed 06 bd 86 4d 3b 3d 84 8e 96 3d
       0.073906586 -0.0329414 0.04572823 0.073514014
000220 8d 55 31 3d 77 c7 b9 bd 98 63 a4 3d 41 6d 31 bd
       0.04329448 -0.09071248 0.080268085 -0.043317083
000230 60 ba 98 3d f6 0a 99 3d e0 c8 5f bd 15 46 e7 3c
       0.07457423 0.07472794 -0.05463493 0.02823166
000240 f8 ca 9b 3c 33 14 e6 bc b9 57 4b bd b9 93 a9 bc
       0.019017681 -0.028085804 -0.049644206 -0.020700322
000250 d6 50 ce bd 30 6d 04 3c 44 a8 ce bc 8c db f7 bc
       -0.10074012 0.008082673 -0.02522672 -0.030256055
000260 3c 37 5d 3d 3a 39 e0 3b 95 b9 51 bb b7 b3 0d bd
       0.054007754 0.0068427594 -0.0032001485 -0.034595218
000270 74 70 6e 3c b7 73 03 3c 36 d5 39 bd 28 b9 4a 3c
       0.014553178 0.008023194 -0.04536935 0.012373246
000280 e6 4f bb bd ab ce 9f bd c5 49 b9 3d 8e 6c a1 3d
       -0.09146099 -0.07803091 0.090472735 0.07882033
000290 fc 03 9a 3d 5b 81 e8 3c df d9 11 bd 98 ee e7 bd
       0.07520291 0.028381994 -0.03560817 -0.11324805
0002a0 7a 3a 8d bd 4e b8 56 bc 71 05 ac ba b6 8c 77 3d
       -0.06895919 -0.013105465 -0.001312418 0.060436927
0002b0 be 36 93 3d 0e 42 98 bd ae 83 a6 3d 93 70 b3 bc
       0.071881756 -0.07434474 0.08130585 -0.021904266
0002c0 c1 b6 63 bc 5e 4f d4 3c a3 b1 48 3d 96 7b 61 3d
       -0.013898552 0.025916751 0.048997533 0.0550495
0002d0 df c9 14 bd ba ba 2a bd fe d8 86 bd ab 13 66 bd
       -0.03632533 -0.041681983 -0.06584357 -0.0561711
0002e0 ea ca 39 bd a9 44 71 bd 21 35 49 3d 3d 5a 83 bd
       -0.04535953 -0.05890337 0.049122933 -0.06413696
0002f0 4b b9 a4 bd de eb 46 bb 6f b7 7d 3d 62 de 61 3d
       -0.08043154 -0.003035299 0.061942514 0.05514372
000300 b5 3e 27 3d f3 12 c6 bd f6 e0 60 bd a2 78 1a 3b
       0.040831286 -0.09671583 -0.05490204 0.0023570438
000310 fc ea 70 bc 8b 75 fe bc ea d4 11 bd 11 b1 a9 bd
       -0.014704462 -0.031061908 -0.03560344 -0.08285726
000320 ca 4e a4 3d 68 d6 c9 bd 13 ca 44 bd fa 85 a2 bd
       0.0802284 -0.09855348 -0.048044275 -0.0793571
000330 2a f3 64 3d 50 67 0c 3d 30 ac 88 bd ed 8a 89 3d
       0.05589596 0.034278214 -0.06673467 0.06715951
000340 73 95 21 bd fd 00 c2 3d 77 fd ca bd 4d ed af 3c
       -0.039449167 0.09472845 -0.09911626 0.021475459
000350 5a 36 81 bc 4b cc 8e 3d 00 f8 b4 3b d8 b8 c5 bd
       -0.015772987 0.069725595 0.005522728 -0.09654397
000360 f3 19 f3 3c 9f b0 c4 3d 93 bf a5 bc 23 59 28 bd
       0.02967546 0.09604 -0.020232951 -0.041100632
000370 1a 67 55 bc 5a 78 c2 bd f3 b9 81 3d a3 22 2c 3d
       -0.01302507 -0.094956115 0.06334295 0.04202522
000380 ad 26 50 3d e7 79 73 bc e3 b5 42 bd 10 7b aa 3d
       0.050818134 -0.014860607 -0.047536742 0.083242536
000390 05 b3 90 bd ed 4d 4b bd 07 78 88 3d c3 32 3b bd
       -0.07065395 -0.049634863 0.066635184 -0.045702707
0003a0 fa ee c3 bc c0 4d 9e bc 5a c0 3a bd 5a cd 06 bd
       -0.023917664 -0.019324183 -0.045593597 -0.032910682
0003b0 aa c9 38 3d 17 14 47 3d 77 78 a0 bd fb 85 ba bd
       0.045114197 0.048603144 -0.07835477 -0.09107586
0003c0 33 ff bd 3b 20 9a bc 3c 35 01 91 3d 8b d5 af bd
       0.0057982444 0.023022711 0.07080308 -0.08585652
0003d0 30 ac 12 bd 3d 8f 81 3d 73 fb 43 bc d5 06 a4 bd
       -0.035808742 0.06326149 -0.011961806 -0.080091156
0003e0 20 42 19 bd 30 4b 54 3d bf ec a4 bd a0 72 6d bd
       -0.037416577 0.051829517 -0.08052968 -0.057970643
0003f0 ad 8c f9 bc d3 2e a8 3d 70 94 14 3d 5a ad 89 bd
       -0.030462587 0.08212056 0.036274374 -0.06722517

linear2.bias f4 [100]
000000 75 16 79 3d be 65 3a bd 80 fb fc bb ff fe 11 3d
       0.060812432 -0.045507185 -0.007720411 0.035643574
000010 98 1d 33 3d 36 a4 96 bd fa 9c 6d bd f3 b8 9d bc
       0.043729395 -0.073555395 -0.058011033 -0.01925323
000020 86 c0 fd 3c d1 5d f6 bc 86 42 97 3d 5b c4 16 3d
       0.030975591 -0.030074032 0.07385735 0.036808353
000030 a1 ce cb 3b 34 4a a6 3d 81 74 b5 3d 62 50 b8 bd
       0.0062197004 0.08119622 0.08860112 -0.08999707
000040 ec eb 1c 3c f2 ec c7 3d a3 05 84 3b b7 b4 12 bd
       0.0095777325 0.097619906 0.0040289923 -0.035816874
000050 fa 8a 21 3d 76 d8 47 bd b7 ec 2c bd 88 50 9f 3c
       0.03943918 -0.048790418 -0.042217936 0.01944758
000060 ad b7 18 3d e3 1c cf 3b 15 85 87 bd 17 1b 91 3d
       0.037284542 0.0063205822 -0.0661718 0.07085245
000070 ce dc 91 bc c3 de 4a bd 26 02 39 bd d0 60 9d 3d
       -0.017805483 -0.04952885 -0.045168065 0.07684481
000080 0b fd 1a bd 52 34 83 bd db 3a d7 bb 17 13 b7 3d
       -0.037838977 -0.06406464 -0.0065682954 0.08939188
000090 2c c8 c2 3d aa 4e 71 bd 57 a0 f6 3c 08 00 22 bc
       0.09510836 -0.05891291 0.030105753 -0.009887703
0000a0 d0 67 ea 3c f6 05 21 bd 7b e6 99 bd b9 59 d4 3d
       0.028613955 -0.039312325 -0.07514664 0.10368676
0000b0 67 bc 16 3d fc db 76 bb c2 db 16 bd 14 d7 88 bb
       0.03680077 -0.0037667742 -0.03683067 -0.00417603
0000c0 b5 e1 48 3d 10 20 29 bd 69 9e d2 bd cf 90 1a 3d
       0.049043376 -0.041290343 -0.102841206 0.037735756
0000d0 c1 5b 96 3d 6f a5 d3 bd c4 71 a8 3d 00 a2 94 bd
       0.073417194 -0.10334288 0.08224824 -0.072574615
0000e0 75 db e9 bb a1 8b 9d 3d c5 22 8e bc df 60 ca 3c
       -0.007136757 0.07692648 -0.017350564 0.024704395
0000f0 79 23 a9 bd de 92 c3 3c 28 8e 79 bb 5f 9e a0 3d
       -0.08258719 0.023873743 -0.0038079116 0.07842707
000100 e2 3b 8b bd 13 29 7b bd 7f 50 d2 bc 2f ac 85 bd
       -0.06798531 -0.06131847 -0.02567315 -0.06526982
000110 5f 81 41 3d d6 73 11 3d 7d 8d 16 3c 45 b5 60 3d
       0.04724252 0.03551086 0.009189007 0.054860372
000120 97 98 43 ba 6b 62 98 3d 34 9d a8 3c 1d 50 8c bc
       -0.00074613973 0.07440647 0.020582773 -0.017128045
000130 bc 1d 9c bd 4d 64 8e ba ea 28 05 bd 87 5f 6e bd
       -0.07622859 -0.0010863632 -0.03250972 -0.05819657
000140 44 3a 5a 3d a3 0f 5d bd 1b 88 29 3c 9a 0e cc bd
       0.053278223 -0.05396999 0.0103473915 -0.099637225
000150 2d 02 f5 3c 1f bd 86 3d c1 a6 8f 3c a5 1b 30 3d
       0.029908264 0.06579041 0.01753557 0.042995114
000160 77 53 f1 3b 1e 6c 97 ba ae c1 a3 bd 10 30 aa 3d
       0.007364686 -0.0011552607 -0.07995926 0.083099484
000170 f9 3a b4 3d 54 6a c6 3d 96 a0 0b bd 1f 4e 64 bd
       0.08800311 0.09688249 -0.034088694 -0.055738565
000180 d3 b4 a1 bd 9e 48 1d 3d 10 d9 d7 bd 51 ca 90 3d
       -0.078958176 0.03839933 -0.10539448 0.07069839

linear3.weight f4 [3, 100]
000000 a6 7d b6 bd 7e 7b ab bd 9a 15 f1 bc 48 71 4c bd
       -0.08910684 -0.08373164 -0.029429246 -0.04991272
000010 8b 71 bc 3d a6 2a 7b 3c e6 54 cc 3c e9 43 99 bb
       0.09201344 0.015329992 0.024942826 -0.004677285
000020 e3 3b 98 3c 6e fb 7d bd 59 a5 bb bd 4d f4 85 3d
       0.018583244 -0.06200736 -0.09162397 0.06540737
000030 7b 07 c2 bd 67 ab 10 3b 22 65 d0 ba 39 8a 1d bd
       -0.09474083 0.002207482 -0.001589928 -0.038461898
000040 4b c5 17 bd 97 b6 35 3d 73 11 83 bc 8d f2 90 3c
       -0.037053388 0.044363584 -0.015999531 0.017693782
000050 61 e9 46 3d 25 38 c1 3b e8 09 67 3d a0 67 9b bd
       0.04856241 0.0058965855 0.05640593 -0.07588124
000060 e8 23 3b 3d bf e1 a8 3d b4 1a b0 bc 8c e6 8b bd
       0.04568854 0.08246183 -0.021497108 -0.06831083
000070 28 3b f7 bb 77 40 a0 3d 5c b7 b9 bd fc 66 c5 bc
       -0.007544894 0.07824796 -0.09068176 -0.024096958
000080 c8 76 bb 3d 67 47 96 3d 1f 09 93 bd f5 f6 52 bd
       0.09153515 0.07337838 -0.07179474 -0.051505048
000090 9e a2 2b bb 40 60 ca 3c 2f 23 6d bd 56 63 2c bd
       -0.0026189457 0.024704099 -0.05789488 -0.04208692
0000a0 0f 60 80 bd cc 02 b2 bd 1b 07 e9 bb de 90 41 ba
       -0.06268322 -0.0869194 -0.0071114427 -0.00073839526
0000b0 8d 89 27 bd c3 de 91 bd fa 57 4d 3c 1a fc 8f bd
       -0.040902663 -0.071225666 0.012533182 -0.070305064
0000c0 81 62 c4 3d 93 b5 84 3d 66 b1 65 bd 93 28 09 3c
       0.09589101 0.06479945 -0.056077383 0.00837149
0000d0 f8 e8 c0 3c d0 78 81 3d 8d f8 2c 3c a7 35 b0 bd
       0.023548588 0.06321871 0.010557306 -0.08603983
0000e0 50 29 ba bd d7 ec b5 bd 2e e2 0f 3d bb 8c ce 3d
       -0.09089911 -0.08883064 0.03512781 0.10085436
0000f0 54 df 60 3c 49 97 8a bd 3d 46 9b bd 75 3b 3b 3c
       0.013725121 -0.067671366 -0.07581756 0.01142775
000100 d9 d4 88 bd 2a d3 fd bc 17 65 6d 3d b2 b0 88 3d
       -0.066812225 -0.03098448 0.057957735 0.06674327
000110 fb fc 2c 3d ce 23 bc bd 2a 19 5d 3d 1c 72 46 bd
       0.04223345 -0.09186517 0.053979076 -0.048448667
000120 4f 8f 9d ba e2 f9 8e bd 3b cb 54 3d 21 db 8b bd
       -0.0012020859 -0.06981255 0.05195163 -0.06828905
000130 5b b8 67 3d f6 78 ab 3d 8c 81 99 bd 38 3b 83 bd
       0.0565723 0.08372681 -0.07495412 -0.064077795
000140 25 eb ef bb aa 2f 1e 3d 6f d9 8a bc f0 61 6c bd
       -0.0073217326 0.038619675 -0.016949384 -0.057710588
000150 d0 02 d0 3c 61 46 8a bd 09 b5 47 3d 3d 98 b2 3c
       0.025391966 -0.06751705 0.048756633 0.021801108
000160 f2 b4 0b 3d bb 0d f7 bb 35 03 a8 bd a2 9c a5 bd
       0.03410811 -0.0075394786 -0.08203737 -0.08086516
000170 f3 14 b2 3d d4 f4 8e 3b 87 5e 81 3b 89 6a a2 bd
       0.08695402 0.004362682 0.003948036 -0.07930476
000180 7e 74 a7 3d 2e 84 09 3d e6 6a 4b bc 3d f7 b4 bd
       0.08176516 0.033573322 -0.012415623 -0.088362195
000190 d4 c0 74 bd 9d c4 cd 3c 8d ec e5 3c cc bb 76 bd
       -0.059754208 0.025118167 0.028066898 -0.06023769
0001a0 f5 54 52 3c 1a d6 3d 3d b1 5f 88 3d 13 c7 97 bd
       0.012837638 0.04634676 0.06658877 -0.07411017
0001b0 98 30 a6 3d 11 cd de 3b 6b 60 fd bc 3d 71 2f 3b
       0.08114737 0.006799348 -0.030929765 0.0026770376
0001c0 47 d0 75 3d 88 9d ac 3b 54 89 14 bd de 13 a5 bc
       0.060013082 0.0052678026 -0.03626378 -0.020151075
0001d0 ed a5 db bc 0c ef 42 bd 02 da da 3b 5d 74 4a 3d
       -0.026812518 -0.047591254 0.0066788206 0.04942738
0001e0 ee b4 a1 bc b2 be cd 3d fe 16 1b 3d af 7b 06 bd
       -0.019739594 0.10046138 0.037863724 -0.032832798
0001f0 e6 1e f2 bc 7d 99 43 3c 8e 50 a6 bd 8d ae 80 bd
       -0.02955575 0.01193845 -0.08120833 -0.06283293
000200 2a 46 9a bd bd c9 7b bd e0 d4 86 3c 07 73 99 3c
       -0.07532914 -0.06147169 0.016458929 0.018731607
000210 4a 8a ba 3a c9 77 7a 3c 1e a7 8a bd 45 d8 4f bb
       0.0014231887 0.015287348 -0.06770156 -0.00317146
000220 48 2c ba 3d 8d 6a 3a 3d ac 54 fe 3c ee e0 2c 3b
       0.09090477 0.04551177 0.031046234 0.0026379186
000230 89 71 f4 3c 42 f2 c2 3d 57 b0 7b 3d 68 11 95 bb
       0.029839294 0.09518863 0.061447468 -0.004549194
000240 99 40 c9 bc 00 9c 15 bd 51 b0 f1 bb 4f 0d 62 3c
       -0.024566935 -0.036525726 -0.007375755 0.013797118
000250 0d b9 9b 3d 63 6b 01 bd f0 1c 9c bc 3e c3 07 bd
       0.07603655 -0.031596553 -0.019056767 -0.03314518
000260 55 88 70 bb b8 8b 22 3c 2f d1 31 bd 7a a0 8b 3d
       -0.0036702354 0.009921007 -0.043412384 0.06817718
000270 0f bf 94 3b 84 07 48 bd 82 7c 46 bd 67 08 08 bc
       0.0045393775 -0.048835292 -0.048458584 -0.0083027845
000280 08 e1 7d bd ec d7 b1 3c 49 44 ae bd ec 2f ab 3d
       -0.061982185 0.021709405 -0.08509118 0.0835875
000290 31 ba ca 39 ea 51 a1 3d 17 60 8d bc c4 55 a5 bd
       0.00038667166 0.07876952 -0.017257733 -0.08072999
0002a0 5e dc 3f bd 66 68 68 bd 6c 7b 8b 3c f6 74 b3 bc
       -0.046841018 -0.056740187 0.017026626 -0.021906357
0002b0 20 dc b7 bd c9 a9 88 3d b0 3b 84 bb d1 0f 0a 3d
       -0.089775324 0.06673009 -0.0040354356 0.03370649
0002c0 d0 ba d7 bc b0 a6 8a bd ab 00 bb 3d 5f 4a 9b 3d
       -0.026334196 -0.06770074 0.09130987 0.075825445
0002d0 8d 48 93 3c 68 4a a4 bd ed 86 a0 3d 0d 68 a1 bc
       0.01797893 -0.08022004 0.07838235 -0.019702936
0002e0 8a 72 b1 3c 32 13 31 bd ab 94 34 3d ca ee 70 3d
       0.021661062 -0.043231197 0.044087093 0.058821477
0002f0 f9 2a 91 3d 30 d5 52 3d e3 bf 84 bd 09 c1 af 3d
       0.070882745 0.051472843 -0.06481912 0.085817404
000300 8c a7 c5 3c 49 2f 84 3a 97 cd fe bc 9a db 38 3c
       0.024127744 0.0010084893 -0.031103892 0.011282826
000310 cb 15 b4 3d 7f 51 85 bd b0 3d 85 3c 7f 33 95 3d
       0.08793219 -0.06509685 0.016264766 0.07285213
000320 fd 64 87 bc c6 d3 97 3d e5 09 99 3d b4 89 b5 bc
       -0.016527647 0.074134395 0.0747259 -0.022160389
000330 c6 1e ab bd 32 8f 4b 3e 73 90 80 3d 65 d3 01 3e
       -0.08355479 0.19878843 0.062775515 0.12678297
000340 e3 78 05 3d 41 79 bd 3d d1 a6 c0 bd 8c c8 4a 3e
       0.03258599 0.09251643 -0.09406818 0.19803065
000350 2a 97 47 3b f4 82 7d 3e 20 ff 95 3d bb d8 fb bd
       0.003045509 0.24756986 0.07324052 -0.122971974
000360 9e 58 98 3d 11 ad 6c 3e e5 d2 6b 3d 87 00 fe bc
       0.074387774 0.23112895 0.05757417 -0.03100611
000370 9a 72 89 3d a0 73 d8 3d 33 42 88 bc 18 db 93 bd
       0.06711312 0.10568929 -0.016633129 -0.07219523
000380 b4 f9 ba 3e 46 1c c4 bc 2e 1d 2a bd e7 ce a0 bd
       0.36518633 -0.023939263 -0.041531734 -0.078519635
000390 87 72 03 bd 3c b9 83 bd 47 89 7e bd f2 ae 44 3e
       -0.032091644 -0.06431815 -0.062142637 0.19207361
0003a0 bf 94 35 3d d5 eb ab bc 7e 68 b8 bd fd 22 b0 3c
       0.04433131 -0.020986477 -0.09004305 0.021501059
0003b0 87 ea 90 3d 33 5b a5 39 a5 3b cc 3c 1d e6 f6 3e
       0.070759825 0.000315392 0.024930784 0.48222438
0003c0 26 c5 df bb a5 9c 11 bd fc 8a 3a bd 39 dd e0 be
       -0.006828922 -0.03554978 -0.045542702 -0.4391878
0003d0 4c 10 d9 bc 9c 3a 90 3c 6f 02 df be c8 c6 b4 3e
       -0.026497029 0.017606072 -0.43556544 0.35307908
0003e0 63 06 95 3d 5c ae 36 3d 61 c5 42 bd c0 96 cd be
       0.07276609 0.044599876 -0.047551516 -0.40154076
0003f0 12 04 d4 bd e2 97 97 bd aa 62 19 bd 43 e9 a1 bd
       -0.10352339 -0.07402016 -0.03744761 -0.07905819

linear3.bias f4 [3]
000000 34 14 83 3c fa da ba bd f3 81 74 bc
       0.016000845 -0.09123798 -0.01492356
