models/pushing_multi_step_residual_dynamics_model.pt (torch, 47023 bytes, 6 tensors)

linear1.weight f4 [100, 6]
-0.2924487 0.062755056 -0.15028426 -0.21608008 0.36807463 0.27411222 -0.29459113 -0.29628783
-0.32321098 0.001997783 0.36110666 0.0054043913 -0.0034216607 0.15301771 0.30427963 -0.26410228
-0.21877755 0.11226762 -0.19702312 0.3751497 -0.11438657 0.13178498 0.2693907 -0.22824745
-0.35592443 0.25972024 -0.3218632 0.24491812 0.20959133 0.3537024 -0.13520372 0.0025715565
-0.26730496 -0.076890744 -0.19686033 -0.2542202 -0.001728114 -0.37095144 -0.040158357 0.06528588
-0.26047236 0.35644552 -0.35715097 0.18740143 0.2921133 -0.3529922 -0.009695487 0.093136944
-0.12528138 -0.39015093 0.21861705 0.35950822 -0.08155314 -0.3872131 -0.2673496 0.05614326
0.11549489 -0.26902112 0.18693613 -0.25619078 0.07707533 -0.034426197 0.07250325 0.31280673
-0.14869837 0.09611751 -0.17298248 0.011522397 -0.16596782 -0.26241818 -0.33963728 -0.13317555
0.2547522 0.14796071 -0.029274521 0.22087972 -0.26327586 0.32937878 -0.27030703 -0.201289
-0.47171572 -0.24445418 0.28642094 -0.13851815 0.20877165 -0.2784477 0.051265933 0.3414369
0.13409029 -0.10149903 -0.24311613 -0.0044530896 -0.004687801 0.39097944 0.049685165 -0.40903518
-0.28331694 0.14536512 0.23333126 -0.32184345 0.20679928 -0.034736983 0.092868514 -0.32858336
-0.04168803 -0.16656809 0.05943649 -0.00839781 -0.36646298 0.26587483 0.07503366 -0.3659128
-0.41835958 -0.07613244 0.09793097 -0.29914907 -0.1203319 0.113667905 0.021509465 -0.22105919
0.30650267 -0.13310757 0.28742358 0.20133926 -0.08740416 -0.14786807 -0.16133772 -0.1659508
-0.135048 -0.1610064 -0.35676762 -0.20122868 -0.3241196 0.2555114 -0.0031565456 0.15002276
0.3092168 0.01041483 0.15733652 0.2840435 0.19780374 -0.38663065 0.3318506 0.06641326
-0.0061864066 0.3668128 0.07503503 0.2019895 0.04360508 0.08070513 0.12166136 0.030495528
-0.2865038 0.33122733 0.018097108 0.32145798 0.1653712 0.30130833 -0.09314224 0.04577697
0.088315375 0.20257261 0.39025736 -0.40752992 -0.069918215 -0.33201164 -0.21581592 -0.12717412
0.20680828 0.11468421 0.35563403 -0.043117475 0.16307902 -0.21843407 0.104907885 0.38351852
0.055859473 0.30752426 0.04476174 -0.087190315 0.12450703 -0.30996227 -0.1321413 0.054859
-0.24461627 0.18882284 0.3549218 0.14685825 0.041530732 -0.3398093 0.40097275 0.10705738
-0.29649857 -0.10736262 -0.022832984 0.3460541 0.03832525 -0.31655213 0.19691084 -0.026341714
0.008655177 0.3780545 0.10424726 0.2597893 -0.3133209 0.20989619 0.24360429 -0.33002046
-0.22886682 0.25902033 -0.28635183 0.0836615 -0.03701849 -0.101668045 0.3351182 -0.08009157
0.19986089 -0.11609705 0.08975008 -0.3064535 0.10260282 0.38936514 0.24128494 0.07102019
-0.3211683 0.18711239 0.11042222 -0.069052026 0.3846831 -0.1530529 -0.13409036 0.055541582
-0.38120896 0.38645124 -0.18350945 -0.46144688 0.38135216 -0.2641864 -0.23557015 0.0068946024
0.25923288 0.03705262 0.23973322 0.12943296 0.23763125 -0.19174981 -0.29670593 0.35999936
0.3744523 -0.3313758 0.17404957 0.17085971 -0.18980297 -0.074611194 -0.19631387 -0.06111448
00000000: d6bb 95be b985 803d 1ee4 19be 1944 5dbe
00000010: 4774 bc3e 7058 8c3e a6d4 96be 0ab3 97be
00000020: e97b a5be 3ded 023b f9e2 b83e 5217 b13b
00000030: f13d 60bb adb0 1c3e 8aca 9b3e 6a38 87be
00000040: 3907 60be 91ec e53d 6ec0 49be 9f13 c03e
00000050: 8243 eabd a4f2 063e 94ed 893e b3b9 69be
00000060: ba3b b6be 0dfa 843e 41cb a4be d1cb 7a3e
00000070: 1c9f 563e 7b18 b53e d872 0abe 8f87 283b
00000080: 32dc 88be e578 9dbd c195 49be 2629 82be
00000090: e281 e2ba 59ed bdbe 177d 24bd 9ab4 853d
000000a0: a25c 85be 0780 b63e 7edc b6be 29e6 3f3e
000000b0: e08f 953e 65bb b4be d2d9 1ebc 95be be3d
000000c0: c349 00be ddc1 c7be 26dd 5f3e 7611 b83e
000000d0: 5505 a7bd cc40 c6be 0ce2 88be 7af6 653d
000000e0: 9688 ec3d 23bd 89be 2f6c 3f3e 702b 83be
000000f0: acd9 9d3d 7c02 0dbd 957c 943d 3428 a03e
00000100: 6344 18be 42d9 c43d 5222 31be 70c8 3c3c
00000110: 78f3 29be ad5b 86be f0e4 adbe 2c5f 08be
00000120: e16e 823e 0383 173e 1fd1 efbc 4b2e 623e
00000130: 18cc 86be 56a4 a83e af65 8abe b41e 4ebe
00000140: b984 f1be 3252 7abe c4a5 923e b4d7 0dbe
00000150: 3cc8 553e b290 8ebe 3afc 513d d1d0 ae3e
00000160: f74e 093e b9de cfbd 6ff3 78be 39eb 91bb
00000170: 209c 99bb 752e c83e ac82 4b3d 0f6d d1be
00000180: eb0e 91be 98da 143e 64ee 6e3e aac8 a4be
00000190: 31c3 533e 5e48 0ebd d931 be3d 143c a8be
000001a0: 11c1 2abd d390 2abe ad73 733d f896 09bc
000001b0: 09a1 bbbe bf20 883e 3fab 993d ec58 bbbe
000001c0: 3a33 d6be 53eb 9bbd 0890 c83d 112a 99be
000001d0: 9270 f6bd b8ca e83d 9e34 b03c 575d 62be
000001e0: ebed 9c3e 5a4d 08be 2f29 933e e12b 4e3e
000001f0: f400 b3bd ba6a 17be b735 25be 02ef 29be
00000200: 064a 0abe ddde 24be 3faa b6be e40e 4ebe
00000210: 01f3 a5be 64d2 823e 0cde 4ebb 919f 193e
00000220: aa51 9e3e f7a2 2a3c d31c 213e 266e 913e
00000230: 108d 4a3e 74f4 c5be 52e8 a93e ad03 883d
00000240: 57b7 cabb e3ce bb3e f7ab 993d 56d6 4e3e
00000250: 3e9b 323d bb48 a53d 9729 f93d c2d1 f93c
00000260: a0b0 92be a196 a93e 6340 943c 2496 a43e
00000270: 1157 293e 1645 9a3e 5cc1 bebd a280 3b3d
00000280: b1de b43d 326f 4f3e d0cf c73e c3a7 d0be
00000290: 4831 8fbd 6efd a9be d9fe 5cbe ef39 02be
000002a0: 8dc5 533e 8edf ea3d aa15 b63e f39b 30bd
000002b0: 30fe 263e 2ead 5fbe f2d9 d63d 8a5c c43e
000002c0: e7cc 643d d273 9d3e 1658 373d d690 b2bd
000002d0: 8bfd fe3d 60b3 9ebe 0d50 07be d5b3 603d
000002e0: b07c 7abe c65a 413e 4fb8 b53e 0262 163e
000002f0: 211c 2a3d 7cfb adbe 4d4c cd3e e640 db3d
00000300: a9ce 97be efe0 dbbd 3d0c bbbc 012e b13e
00000310: f0fa 1c3d 1f13 a2be ffa2 493e 94ca d7bc
00000320: 72ce 0d3c 5c90 c13e 967f d53d 1a03 853e
00000330: 996b a0be 07ef 563e 6773 793e 71f8 a8be
00000340: 105c 6abe 509e 843e b59c 92be b856 ab3d
00000350: b3a0 17bd 5637 d0bd 9d94 ab3e 0d07 a4bd
00000360: 55a8 4c3e 4ac4 edbd e4ce b73d 79e7 9cbe
00000370: 6d21 d23d de5a c73e 6613 773e 0973 913d
00000380: 2c70 a4be 649a 3f3e 0b25 e23d 266b 8dbd
00000390: 2ff5 c43e e6b9 1cbe fc4e 09be 927f 633d
000003a0: d22d c3be f0dc c53e e7e9 3bbe c442 ecbe
000003b0: 9740 c33e 7143 87be 4d39 71be 1eec e13b
000003c0: 2cba 843e 7dc4 173d a07c 753e 138a 043e
000003d0: 9b55 733e 105a 44be d7e9 97be d651 b83e
000003e0: 36b8 bf3e 17aa a9be 0d3a 323e d9f5 2e3e
000003f0: b65b 42be c1cd 98bd 8106 49be 2d53 7abd

linear1.bias f4 [100]
-0.35517576 0.13769992 -0.06683972 0.058847357 0.016379928 0.2354312 -0.34911826 0.36273855
-0.14124966 0.08241051 0.24080734 0.1510695 -0.1678161 -0.27427787 -0.02367894 0.32614434
0.18420373 -0.05544955 0.36236227 0.29452005 0.40138495 0.1848779 -0.10197921 0.23300415
0.10271475 0.08381115 0.37748036 -0.31910184 0.03577746 0.31201506 0.4026266 -0.0733099
-0.20978945 0.04861662 0.30656376 -0.39696446 0.37478867 0.101823725 0.09822266 0.32120252
-0.18159726 -0.13924722 0.39327246 -0.3323609 -0.28332388 -0.2889911 0.4133716 -0.1306182
-0.060082197 0.24099046 0.33844024 -0.31271243 0.0898822 -0.09774534 0.032421928 -0.16657741
-0.17964892 0.09149373 0.035451457 -0.025284903 -0.09795381 0.1139815 0.07038956 0.19182871
0.11707587 0.38849413 -0.15447207 -0.15542828 0.005478944 -0.15558936 -0.10330118 -0.04846042
-0.3206372 -0.2549247 -0.33752266 -0.3820663 -0.05907551 -0.09816619 -0.188356 -0.09979784
0.19583763 -0.2918124 0.2998717 -0.010105111 0.12080686 -0.29866192 0.41136476 -0.101667956
0.033482432 -0.057938606 -0.1242521 0.34865934 0.075835064 -0.04389548 0.09435443 0.016595371
0.40422732 0.11378136 0.12350101 0.37873018
00000000: 99d9 b5be 3501 0d3e 43e3 88bd ed09 713d
00000010: 332f 863c e014 713e a1bf b2be deb8 b93e
00000020: c0a3 10be d7c6 a83d 3396 763e f7b1 1a3e
00000030: fcd7 2bbe 266e 8cbe 56fa c1bc 64fc a63e
00000040: e79f 3c3e 111f 63bd 8c87 b93e 55cb 963e
00000050: 5482 cd3e a250 3d3e 7ada d0bd a498 6e3e
00000060: 1c5c d23d 2ea5 ab3d 1b45 c13e 5161 a3be
00000070: 638b 123d 70c0 9f3e 1325 ce3e 8023 96bd
00000080: 0cd3 56be 3922 473d edf5 9c3e ed3e cbbe
00000090: 4de4 bf3e f588 d03d f628 c93d a874 a43e
000000a0: a2f4 39be d396 0ebe 025b c93e 352b aabe
000000b0: d40f 91be a4f6 93be 71a5 d33e c7c0 05be
000000c0: c018 76bd 34c6 763e 0a48 ad3e d81b a0be
000000d0: 2914 b83d b52e c8bd dbcc 043d 4593 2abe
000000e0: e3f5 37be 1161 bb3d 8c35 113d 4922 cfbc
000000f0: 029c c8bd 226f e93d 6728 903d bf6e 443e
00000100: 79c5 ef3d b4e8 c63e ed2d 1ebe 9728 1fbe
00000110: b788 b33b d152 1fbe 928f d3bd 6f7e 46bd
00000120: 8f2a a4be 7e85 82be c5cf acbe 329e c3be
00000130: 29f9 71bd 5b0b c9bd 65e0 40be cf62 ccbd
00000140: a989 483e 6f68 95be c988 993e e88f 25bc
00000150: 9669 f73d 37ea 98be 679e d23e 4a37 d0bd
00000160: e024 093d 0851 6dbd e377 febd 7a83 b23e
00000170: 6a4f 9b3d bfcb 33bd e53c c13d 04f3 873c
00000180: e2f6 ce3e 3406 e93d 19ee fc3d ece8 c13e

linear2.weight f4 [100, 100]
-0.040500447 -0.027450252 0.029347165 0.11709475 -0.07391457 0.06998121 -0.049304925 0.042676073
-0.08966693 -0.08063788 0.08648008 -0.052588426 -0.010297674 0.09536838 0.09210106 -0.036282152
-0.082761675 -0.07101545 -0.0033811545 0.045784153 -0.017992187 -0.030040922 0.059439443 -0.013485364
-0.1017508 0.0727263 -0.001955003 -0.06782448 -0.07889892 0.033142388 -0.061815068 0.08809307
-0.039223302 -0.004112534 -0.016972989 0.09977762 0.0523747 0.058844272 -0.07487282 -0.04915147
0.052450266 0.05877504 -0.088413686 -0.009179294 -0.046546552 0.0610884 -0.06693934 -0.05929422
0.04464056 0.09197856 -0.042583607 0.0084865615 -0.017652128 -0.038096298 0.0044465703 -0.041233808
0.05472199 0.054628227 0.08065541 0.010118726 0.0030385419 0.04337017 -0.09331951 -0.009266046
0.020586114 -0.041948188 0.00014608305 0.02088305 0.016427316 0.081913844 -0.0056656785 0.031722516
-0.04100074 -0.09933086 -0.06601055 0.072727874 -0.020092532 -0.09619017 -0.045168515 -0.096672244
-0.06300849 0.076821454 -0.026503367 -0.014983076 -0.09689628 -0.057081267 0.046987962 -0.051007804
-0.012387753 0.031211574 0.028200883 0.079305306 -0.008151928 0.08463025 -0.044176765 -0.019155396
-0.06552783 -0.0460283 -0.09853804 -0.023199324 0.024258867 -0.004627898 0.057505373 0.00035096286
-0.057732902 0.08668271 0.061025698 -0.06675088 0.014179702 0.0724954 -0.09786615 0.002638078
0.047176305 0.08337294 -0.02514757 0.014182946 0.035309784 0.049566083 -0.016873276 0.03100251
-0.026522562 0.089056365 -0.080070265 0.019127358 0.05791644 -0.049789287 0.016267696 -0.0021301424
-0.09176395 -0.07196061 0.023194881 -0.037492942 0.011314071 -0.039680067 0.03774126 -0.044459812
0.0022428604 -0.00042033917 -0.09959764 0.0148842195 -0.09085535 -0.013887674 -0.09000362 0.053347778
0.027568676 -0.041128207 0.007938608 -0.06437052 0.019111374 -0.075897016 -0.04586304 0.07021863
0.02339614 -0.056240622 0.086698666 0.05472634 -0.10386685 0.08117827 -0.0055810544 -0.016981976
0.026814317 -0.09342621 0.033772383 -0.09974248 -0.01977158 0.07388318 0.08561703 0.021811396
-0.09315748 -0.031870797 -0.05571767 -0.047310404 -0.071148634 -0.094353 -0.011033906 -0.0045148595
0.016752752 -0.03418821 -0.00156031 -0.015708573 -0.06891292 0.031872068 -0.070886016 -0.074430406
-0.014605966 -0.07278486 0.0017798574 -0.010971527 0.056856863 0.013715996 -0.059375603 0.0116862785
-0.036791105 -0.051749036 -0.09545844 -0.09451088 0.018340072 0.07305822 0.0718627 -0.08963974
0.0853737 -0.0745875 0.008952815 0.09052259 -0.08295695 0.09261897 -0.08572023 0.061276946
0.03188617 0.046685383 -0.07802682 -0.08258372 -0.024974167 -0.07974907 -0.09235557 -0.0021773176
-0.055165403 -0.024583384 0.030247858 -0.018933276 -0.077043526 -0.024680445 -0.006322462 0.023115518
0.0123853125 0.0038045219 0.0006033142 0.041950863 0.07182101 0.08481338 -0.028595641 -0.008805469
0.07852173 -0.04315321 0.057829652 0.06999454 0.02388031 0.092281215 -0.019954022 0.0073600467
-0.10628373 -0.082710266 -0.058026347 -0.01954183 -0.01790906 0.07134601 0.046774935 -0.083204925
-0.016272493 0.015530686 -0.09844892 -0.07975677 -0.046184666 0.026087161 -0.10003881 0.019341797
00000000: cce3 25bd 5adf e0bc 7769 f03c 5fcf ef3d
00000010: 8660 97bd 4f52 8f3d f6f3 49bd 1bcd 2e3d
00000020: 4ca3 b7bd 7925 a5bd 781c b13d f666 57bd
00000030: 93b7 28bc 7f50 c33d 7b9f bc3d 989c 14bd
00000040: f47e a9bd 8c70 91bd 5c96 5dbb 2a88 3b3d
00000050: 5a64 93bc 6118 f6bc c676 733d b7f1 5cbc
00000060: b962 d0bd 87f1 943d 821f 00bb 90e7 8abd
00000070: c295 a1bd 50c0 073d cc31 7dbd 246a b43d
00000080: 9da8 20bd 70c2 86bb f00a 8bbc 3558 cc3d
00000090: da86 563d b106 713d ec56 99bd 0d53 49bd
000000a0: 17d6 563d 19be 703d 3c12 b5bd c064 16bc
000000b0: 99a7 3ebd d537 7a3d 7e17 89bd 7fde 72bd
000000c0: 05d9 363d 415f bc3d 266c 2ebd 380b 0b3c
000000d0: 329b 90bc dd0a 1cbd 89b4 913b c8e4 28bd
000000e0: 2a24 603d d9c1 5f3d aa2e a53d 03c9 253c
000000f0: 4622 473b eba4 313d 4d1e bfbd 9dd0 17bc
00000100: 36a4 a83c ddd1 2bbd df2d 1939 ee12 ab3c
00000110: 9492 863c 72c2 a73d 28a7 b9bb 78ef 013d
00000120: 64f0 27bd fa6d cbbd 8a30 87bd 5af2 943d
00000130: 1899 a4bc 5aff c4bd 9f02 39bd 19fc c5bd
00000140: 980a 81bd 9154 9d3d 971d d9bc 937b 75bc
00000150: 8f71 c6bd 0cce 69bd 7376 403d 8fed 50bd
00000160: 01f6 4abc 6aaf ff3c 8a05 e73c d26a a23d
00000170: aa8f 05bc a052 ad3d b2f2 34bd c7eb 9cbc
00000180: 7433 86bd 2c88 3cbd 50ce c9bd 820c bebc
00000190: 88ba c63c 9fa5 97bb c18a 6b3d 7001 b839
000001a0: 5679 6cbd b486 b13d 15f6 793d afb4 88bd
000001b0: fb51 683c 7878 943d 0c6e c8bd 9be3 2c3b
000001c0: f13b 413d 6fbf aa3d 4702 cebc 965f 683c
000001d0: fea0 103d ce05 4b3d d339 8abc faf8 fd3c
000001e0: d845 d9bc 2f63 b63d e1fb a3bd fab0 9c3c
000001f0: ca39 6d3d daef 4bbd d543 853c dc99 0bbb
00000200: bdee bbbd 1660 93bd 3103 be3c 3392 19bd
00000210: a75e 393c 9187 22bd 9496 1a3d 7e1b 36bd
00000220: f4fc 123b f860 dcb9 d9f9 cbbd f1dc 733c
00000230: 5f12 babd 2089 63bc d153 b8bd 3383 5a3d
00000240: b4d7 e13c 0d76 28bd ef10 023c b1d4 83bd
00000250: 758f 9c3c e56f 9bbd e2da 3bbd c9ce 8f3d
00000260: 43a9 bf3c 915c 66bd 128f b13d ba28 603d
00000270: 25b8 d4bd cb40 a63d 47e1 b6bb c91d 8bbc
00000280: b3a9 db3c 3e56 bfbd e954 0a3d c945 ccbd
00000290: 02f8 a1bc 1150 973d fb57 af3d d0ad b23c
000002a0: 59c9 bebd f48a 02bd 3638 64bd 8ec8 41bd
000002b0: 60b6 91bd 253c c1bd 8ec7 34bc 63f1 93bb
000002c0: 113d 893c f008 0cbd 5183 ccba 44af 80bc
000002d0: 3822 8dbd 498c 023d b02c 91bd f86e 98bd
000002e0: dd4d 6fbc 3b10 95bd 1b4a e93a ebc1 33bc
000002f0: bee2 683d 0fb9 603c d533 73bd ce77 3f3c
00000300: 45b2 16bd ccf6 53bd b77f c3bd ec8e c1bd
00000310: eb3d 963c 8c9f 953d c02c 933d 0a95 b7bd
00000320: 68d8 ae3d 55c1 98bd d4ae 123c e863 b93d
00000330: 55e5 a9bd 04af bd3d 178e afbd 89fd 7a3d
00000340: 139b 023d 2c39 3f3d 87cc 9fbd a721 a9bd
00000350: a096 ccbc 7b53 a3bd eb24 bdbd 54b1 0ebb
00000360: 1ef5 61bd 1863 c9bc 5bca f73c f519 9bbc
00000370: ffc8 9dbd a52e cabc a82c cfbb c15c bd3c
00000380: c4eb 4a3c 4955 793b bb27 1e3a abd4 2b3d
00000390: e516 933d a3b2 ad3d 6841 eabc d044 10bc
000003a0: 00d0 a03d 6cc1 30bd c9de 6c3d 4c59 8f3d
000003b0: a4a0 c33c effd bc3d 9e76 a3bc 8c2c f13b
000003c0: 49ab d9bd 0064 a9bd 09ad 6dbd 3016 a0bc
000003d0: 05b6 92bc db1d 923d 1397 3f3d 5867 aabd
000003e0: e44d 85bc 6b74 7e3c 969f c9bd 8457 a3bd
000003f0: 222c 3dbd beb4 d53c 26e1 ccbd b072 9e3c

linear2.bias f4 [100]
-0.03075743 0.071904376 -0.057487316 -0.04683 0.10052865 -0.1184372 0.026616022 -0.024693893
-0.06534408 -0.104465604 -0.07054151 -0.076193884 -0.0080583 -0.07543855 -0.046615943 -0.08520322
-0.08277275 0.002209413 -0.043665953 0.039215956 -0.081745215 0.02187312 0.030412883 0.085925005
-0.011492503 -0.07462783 -0.031469308 0.035963073 -0.02700796 -0.084939584 0.075509235 0.10008555
-0.06050291 0.054732062 0.06918198 -0.028737925 -0.040162142 0.057304207 -0.009694913 0.061074782
-0.05662195 0.001891944 -0.07318996 -0.0510016 -0.03484519 0.05882642 -0.008241569 0.046195496
0.01781622 0.01260336 -0.098683394 -0.0353674 -0.0810131 -0.034070667 -0.040741082 0.006903581
-0.059660222 -0.0012557938 -0.033162564 -0.1033006 -0.08197607 0.046806395 0.048668884 -0.049476106
-0.097413436 0.012602596 -0.094356716 0.07299685 -0.019435003 0.029410005 -0.0032096389 0.01901757
-0.029109845 -0.071404725 -0.078124814 -0.007170473 -0.06923692 0.049465995 -0.08628225 0.027231377
-0.03653164 0.011087409 -0.09681681 0.0011551961 -0.041736174 0.055106536 -0.07088021 0.05681925
-0.06927198 0.06927033 0.023482371 0.0128972 0.07467356 0.087660976 -0.014952871 -0.02454157
-0.023002818 0.033724986 0.07112594 0.013098811
00000000: 01f7 fbbc 9a42 933d d277 6bbd d0d0 3fbd
00000010: f7e1 cd3d 348f f2bd d809 da3c d94a cabc
00000020: 1ed3 85bd 10f2 d5bd 1178 90bd 8a0b 9cbd
00000030: f606 04bc 877f 9abd 5cf0 3ebd 077f aebd
00000040: c284 a9bd cdcb 103b 12db 32bd e9a0 203d
00000050: 096a a7bd 422f b33c 7024 f93c 73f9 af3d
00000060: 0d4b 3cbc 7ad6 98bd f6e5 00bd 044e 133d
00000070: cc3f ddbc cef4 adbd 96a4 9a3d a7f9 cc3d
00000080: e6d1 77bd ba2e 603d 48af 8d3d cc6b ebbc
00000090: 0f81 24bd d1b7 6a3d 6ad7 1ebc 8d29 7a3d
000000a0: 6bec 67bd 1bfb f73a 9ee4 95bd 0ee7 50bd
000000b0: d4b9 0ebd f9f3 703d a507 07bc 7d37 3d3d
000000c0: 52f3 913c 537e 4e3c 851a cabd 68dd 10bd
000000d0: 32ea a5bd af8d 0bbd 1fe0 26bd 6f37 e23b
000000e0: 475e 74bd 7399 a4ba 78d5 07bd 448f d3bd
000000f0: 12e3 a7bd 10b8 3f3d 0659 473d 75a7 4abd
00000100: b280 c7bd 1e7b 4e3c 183e c1bd 5f7f 953d
00000110: 2836 9fbc 40ed f03c ce58 52bb bcca 9b3c
00000120: c577 eebc a43c 92bd e7ff 9fbd 4af6 eabb
00000130: 16cc 8dbd db9c 4a3d c0b4 b0bd 5614 df3c
00000140: 33a2 15bd f7a7 353c e447 c6bd f369 973a
00000150: 8df3 2abd 64b7 613d a529 91bd 4dbb 683d
00000160: 78de 8dbd 9add 8d3d 1a5e c03c c74e 533c
00000170: 74ee 983d 9987 b33d e3fc 74bc 670b c9bc
00000180: 6870 bcbc 3623 0a3d 7aaa 913d 659c 563c

linear3.weight f4 [3, 100]
0.08054205 -0.092416 0.06249539 -0.09302105 -0.023238456 -0.0078009167 -0.039216556 0.021847732
0.024639111 -0.06750834 -0.022683527 0.03532211 0.085888416 0.09907262 -0.009095896 0.07429188
0.087039135 0.05391809 0.05756901 0.038926147 0.01713798 -0.084239215 0.098017484 -0.0014760669
0.07234829 -0.02932334 -0.077264436 -0.03824805 -0.04074793 -0.0029579226 0.098539636 0.04975224
-0.020169543 -0.06733759 -0.004654913 0.0144044645 -0.07274749 0.011778018 0.013210659 -0.04671604
0.08565827 0.043346986 -0.018313412 0.050881375 0.04728554 0.012730696 0.05135742 -0.060916554
0.0062829563 -0.041571714 -0.07897584 -0.06905201 -0.025058568 0.03202225 -0.08505231 -0.0024104815
-0.09874149 0.07848579 -0.030955322 0.031746574 -0.09235843 -0.04415023 -0.089371994 -0.0072644427
0.031175002 -0.057927486 -0.047241986 -0.059751026 -0.06601915 0.050790302 0.0932948 -0.055571012
0.035207294 0.056181446 0.06057186 -0.03225917 0.011514996 0.081468105 0.006343308 -0.07211511
0.06498914 0.03319608 0.021591758 0.052546903 0.010137427 -0.049275253 0.009183234 -0.02844116
0.0023269174 0.029769279 0.06216487 0.048111856 -0.07182358 0.035662103 -0.06521581 0.031166507
-0.07005786 -0.084007025 -0.059778742 -0.026290607 -0.012518694 -0.0470385 -0.036395904 -0.00884221
0.08809155 0.005615452 0.03461271 0.01349072 -0.040226664 -0.06868249 0.06275122 0.10368044
0.0029137009 0.057851274 -0.029007588 0.05609667 -0.0097597875 0.022774328 0.045759376 -0.013640382
0.015406321 0.003681157 0.08604027 -0.03616574 -0.006014771 0.064497925 -0.015506786 0.052897733
0.0819915 0.09886457 -0.016110612 -0.027572945 0.067604415 0.05810954 0.08619133 0.014829495
0.055738844 -0.07067645 -0.027997289 0.066994265 0.07072751 -0.046252303 -0.09101903 0.029998021
0.057652965 0.043308005 -0.0515528 0.06163136 -0.048639715 0.03515805 -0.076725505 -0.0647707
-0.06770146 -0.08902289 0.030270917 0.008916056 0.04544698 -0.09093499 -0.014263705 0.025759635
-0.088374935 -0.03409395 -0.018486038 0.05880558 -0.022484783 0.085109346 0.06289321 0.011891698
0.05760331 0.03181076 -0.0038388576 -0.05404155 -0.042154737 0.07111144 0.061013453 -0.031854447
-0.010123635 0.048601445 -0.07530814 -0.024914917 -0.05678185 0.01609724 -0.018148128 -0.09337394
-0.023845052 0.039109398 -0.09495197 -0.047887333 0.0057679377 0.07311627 -0.055609584 0.06904118
0.038176853 -0.08193143 -0.018985005 0.05596861 -0.04853038 -0.030206282 0.0076561314 -0.07697897
0.023689568 -0.076163545 0.035117585 -0.06323657 -0.08295202 -0.5033881 -0.41897634 -0.05641235
-0.22718084 0.17839986 -0.026081175 0.09022767 -0.03106996 0.026327614 -0.58241034 0.07905262
-0.09484997 0.025899936 -0.10580661 0.03072966 -0.02907452 0.07857901 -0.023707304 -0.1942474
-0.11412734 -0.29065594 0.070118815 -0.089626096 -0.2151343 0.04347068 -0.034092836 -0.05551698
-0.017209677 -0.1832383 -0.062445797 0.30449244 0.025655797 -0.035607137 0.062462516 0.032961715
-0.0030353907 -0.2925708 0.025116261 -0.069109626 0.102149576 -0.02991789 -0.08365403 0.058409274
-0.4210809 0.23039107 -0.0064104185 -0.096220285 0.067835435 -0.13840738 0.09885975 -0.016495401
00000000: 3bf3 a43d 9a44 bdbd 2bfb 7f3d d281 bebd
00000010: 935e bebc d59e ffbb 8aa1 20bd 04fa b23c
00000020: f6d7 c93c d041 8abd ced2 b9bc ebad 103d
00000030: 44e6 af3d 96e6 ca3d f406 15bc 5726 983d
00000040: 9341 b23d 37d9 5c3d 7bcd 6b3d 0671 1f3d
00000050: f364 8c3c 9c85 acbd 64bd c83d 9678 c1ba
00000060: 572b 943d 8037 f0bc d13c 9ebd fda9 1cbd
00000070: 4de7 26bd b5d9 41bb 26cf c93d 01c9 4b3d
00000080: 993a a5bc 4ae8 89bd 3e88 98bb b400 6c3c
00000090: a3fc 94bd 97f8 403c 8571 583c 5159 3fbd
000000a0: 9a6d af3d 9c8c 313d 0206 96bc fd68 503d
000000b0: 7bae 413d 6994 503c 285c 523d a383 79bd
000000c0: 42e1 cd3b 1a47 2abd 16be a1bd 246b 8dbd
000000d0: a047 cdbc c329 033d e82f aebd 2bf9 1dbb
000000e0: fa38 cabd 28bd a03d 0496 fdbc b208 023d
000000f0: 6b26 bdbd dfd6 34bd aa08 b7bd 900a eebb
00000100: b862 ff3c 5f45 6dbd d080 41bd 7ebd 74bd
00000110: 0c35 87bd 7e09 503d 5811 bf3d 6e9e 63bd
00000120: 8635 103d 841e 663d 331a 783d 3122 04bd
00000130: 65a9 3c3c c0d8 a63d 86db cf3b 16b1 93bd
00000140: 0719 853d 9df8 073d 33e1 b03c 6c3b 573d
00000150: 7317 263c d9d4 49bd 4675 163c 70fd e8bc
00000160: 327f 183b b4de f33c 97a0 7e3d f010 453d
00000170: 3e18 93bd 6d12 123d de8f 85bd e750 ff3c
00000180: 7f7a 8fbd e00b acbd 8eda 74bd 665f d7bc
00000190: 351b 4dbc 71ab 40bd df13 15bd ebde 10bc
000001a0: 5869 b43d d301 b83b 0fc6 0d3d 2e08 5d3c
000001b0: b7c4 24bd 68a9 8cbd b683 803d 6956 d43d
000001c0: caf3 3e3b 75f5 6c3d 52a1 edbc 9fc5 653d
000001d0: 84e7 1fbc 3a91 ba3c 2f6e 3b3d e97b 5fbc
000001e0: cb6a 7c3c 913f 713b e235 b03d 8722 14bd
000001f0: 8e17 c5bb 7d17 843d 2d10 7ebc 4bab 583d
00000200: 29eb a73d 8279 ca3d 67fa 83bc a8e0 e1bc
00000210: 2f74 8a3d 4504 6e3d 1485 b03d 69f7 723c
00000220: 6a4e 643d d1be 90bd 925a e5bc 4a34 893d
00000230: 96d9 903d 0e73 3dbd 2f68 babd 69be f53c
00000240: 8425 6c3d bc63 313d 0729 53bd 2a71 7c3d
00000250: 703a 47bd e301 103d 4322 9dbd 80a6 84bd
00000260: 10a7 8abd a251 b6bd b7fa f73c a614 123c
00000270: 9d26 3a3d 203c babd 51b2 69bc df05 d33c
00000280: ebfd b4bd 19a6 0bbd 0870 97bc 1fde 703d
00000290: 0232 b8bc cf4d ae3d 28ce 803d 66d5 423c
000002a0: 73f1 6b3d 004c 023d 5895 7bbb ac5a 5dbd
000002b0: 72aa 2cbd e0a2 913d 3ee9 793d cf79 02bd
000002c0: 9add 25bc 4f12 473d 273b 9abd 5e1a ccbc
000002d0: 1694 68bd 5cde 833c 62ab 94bc d63a bfbd
000002e0: b356 c3bc 2d31 203d 2e76 c2bd 8225 44bd
000002f0: f800 bd3b fcbd 953d e0c6 63bd 7665 8d3d
00000300: 555f 1c3d aacb a7bd 7186 9bbc 573f 653d
00000310: cbc7 46bd 2a73 f7bc 49e0 fa3b 26a7 9dbd
00000320: a010 c23c a2fb 9bbd 75d7 0f3d 2d82 81bd
00000330: c0e2 a9bd 0bde 00bf 1184 d6be a310 67bd
00000340: 18a2 68be 74ae 363e 30a8 d5bc 49c9 b83d
00000350: 6e86 febc 02ad d73c d818 15bf 57e6 a13d
00000360: b340 c2bd 1a2c d43c 23b1 d8bd c5bc fb3c
00000370: b02d eebc 08ee a03d d235 c2bc cae8 46be
00000380: 98bb e9bd dbd0 94be 749a 8f3d e38d b7bd
00000390: 2a4c 5cbe 500e 323d eea4 0bbd c665 63bd
000003a0: 4ffb 8cbc d2a2 3bbe 2ac7 7fbd 6fe6 9b3e
000003b0: 1b2c d23c cad8 11bd b2d8 7f3d dd02 073d
000003c0: 68ed 46bb d7cb 95be 9ec0 cd3c 5989 8dbd
000003d0: cc33 d13d 5d16 f5bc ce52 abbd 903e 6f3d
000003e0: ea97 d7be a3eb 6b3e 7d0e d2bb 240f c5bd
000003f0: 4eed 8a3d aaba 0dbe fb76 ca3d 5d21 87bc

linear3.bias f4 [3]
-0.059063047 -0.02229032 0.05810582
00000000: 18ec 71bd 309a b6bc 5e00 6e3d
